<?xml version="1.0"?>
<net name="Model0" version="11">
	<layers>
		<layer id="3" name="input_ids" type="Parameter" version="opset1">
			<data shape="?,?" element_type="i64" />
			<output>
				<port id="0" precision="I64" names="input_ids">
					<dim>-1</dim>
					<dim>-1</dim>
				</port>
			</output>
		</layer>
		<layer id="2" name="attention_mask" type="Parameter" version="opset1">
			<data shape="?,?" element_type="i64" />
			<output>
				<port id="0" precision="I64" names="attention_mask">
					<dim>-1</dim>
					<dim>-1</dim>
				</port>
			</output>
		</layer>
		<layer id="1" name="position_ids" type="Parameter" version="opset1">
			<data shape="?,?" element_type="i64" />
			<output>
				<port id="0" precision="I64" names="position_ids">
					<dim>-1</dim>
					<dim>-1</dim>
				</port>
			</output>
		</layer>
		<layer id="0" name="beam_idx" type="Parameter" version="opset1">
			<data shape="?" element_type="i32" />
			<output>
				<port id="0" precision="I32" names="beam_idx">
					<dim>-1</dim>
				</port>
			</output>
		</layer>
		<layer id="4" name="Constant_271075" type="Const" version="opset1">
			<data element_type="f32" shape="" offset="0" size="4" />
			<output>
				<port id="0" precision="FP32" />
			</output>
		</layer>
		<layer id="5" name="ShapeOf_271061" type="ShapeOf" version="opset3">
			<data output_type="i64" />
			<input>
				<port id="0" precision="I64">
					<dim>-1</dim>
					<dim>-1</dim>
				</port>
			</input>
			<output>
				<port id="1" precision="I64">
					<dim>2</dim>
				</port>
			</output>
		</layer>
		<layer id="6" name="Constant_271063" type="Const" version="opset1">
			<data element_type="i64" shape="1" offset="4" size="8" />
			<output>
				<port id="0" precision="I64">
					<dim>1</dim>
				</port>
			</output>
		</layer>
		<layer id="7" name="Constant_271065" type="Const" version="opset1">
			<data element_type="i64" shape="" offset="4" size="8" />
			<output>
				<port id="0" precision="I64" />
			</output>
		</layer>
		<layer id="8" name="Gather_271066" type="Gather" version="opset8">
			<data batch_dims="0" />
			<input>
				<port id="0" precision="I64">
					<dim>2</dim>
				</port>
				<port id="1" precision="I64">
					<dim>1</dim>
				</port>
				<port id="2" precision="I64" />
			</input>
			<output>
				<port id="3" precision="I64">
					<dim>1</dim>
				</port>
			</output>
		</layer>
		<layer id="9" name="Constant_271068" type="Const" version="opset1">
			<data element_type="i64" shape="1" offset="12" size="8" />
			<output>
				<port id="0" precision="I64">
					<dim>1</dim>
				</port>
			</output>
		</layer>
		<layer id="10" name="Constant_271070" type="Const" version="opset1">
			<data element_type="i64" shape="1" offset="4" size="8" />
			<output>
				<port id="0" precision="I64">
					<dim>1</dim>
				</port>
			</output>
		</layer>
		<layer id="11" name="Constant_271072" type="Const" version="opset1">
			<data element_type="i64" shape="1" offset="20" size="8" />
			<output>
				<port id="0" precision="I64">
					<dim>1</dim>
				</port>
			</output>
		</layer>
		<layer id="12" name="Concat_271073" type="Concat" version="opset1">
			<data axis="0" />
			<input>
				<port id="0" precision="I64">
					<dim>1</dim>
				</port>
				<port id="1" precision="I64">
					<dim>1</dim>
				</port>
				<port id="2" precision="I64">
					<dim>1</dim>
				</port>
				<port id="3" precision="I64">
					<dim>1</dim>
				</port>
			</input>
			<output>
				<port id="4" precision="I64">
					<dim>4</dim>
				</port>
			</output>
		</layer>
		<layer id="13" name="Broadcast_271076" type="Broadcast" version="opset3">
			<data mode="numpy" />
			<input>
				<port id="0" precision="FP32" />
				<port id="1" precision="I64">
					<dim>4</dim>
				</port>
			</input>
			<output>
				<port id="2" precision="FP32">
					<dim>-1</dim>
					<dim>2</dim>
					<dim>0</dim>
					<dim>128</dim>
				</port>
			</output>
		</layer>
		<layer id="14" name="ReadValue_265805" type="ReadValue" version="opset6">
			<data variable_id="past_key_values.9.valuepresent.9.value" variable_type="f32" variable_shape="?,2,?,128" />
			<input>
				<port id="0" precision="FP32">
					<dim>-1</dim>
					<dim>2</dim>
					<dim>0</dim>
					<dim>128</dim>
				</port>
			</input>
			<output>
				<port id="1" precision="FP32" names="past_key_values.9.value">
					<dim>-1</dim>
					<dim>2</dim>
					<dim>-1</dim>
					<dim>128</dim>
				</port>
			</output>
		</layer>
		<layer id="15" name="Constant_260331" type="Const" version="opset1">
			<data element_type="i64" shape="" offset="4" size="8" />
			<output>
				<port id="0" precision="I64" />
			</output>
		</layer>
		<layer id="16" name="Gather_260332" type="Gather" version="opset8">
			<data batch_dims="0" />
			<input>
				<port id="0" precision="FP32">
					<dim>-1</dim>
					<dim>2</dim>
					<dim>-1</dim>
					<dim>128</dim>
				</port>
				<port id="1" precision="I32">
					<dim>-1</dim>
				</port>
				<port id="2" precision="I64" />
			</input>
			<output>
				<port id="3" precision="FP32">
					<dim>-1</dim>
					<dim>2</dim>
					<dim>-1</dim>
					<dim>128</dim>
				</port>
			</output>
		</layer>
		<layer id="17" name="Constant_229838" type="Const" version="opset1">
			<data element_type="f32" shape="1, 1, 1536" offset="28" size="6144" />
			<output>
				<port id="0" precision="FP32">
					<dim>1</dim>
					<dim>1</dim>
					<dim>1536</dim>
				</port>
			</output>
		</layer>
		<layer id="18" name="self.model.embed_tokens.weight" type="Const" version="opset1">
			<data element_type="u8" shape="151936, 1536" offset="6172" size="233373696" />
			<output>
				<port id="0" precision="U8">
					<dim>151936</dim>
					<dim>1536</dim>
				</port>
			</output>
		</layer>
		<layer id="19" name="Convert_277219" type="Convert" version="opset1">
			<data destination_type="f16" />
			<input>
				<port id="0" precision="U8">
					<dim>151936</dim>
					<dim>1536</dim>
				</port>
			</input>
			<output>
				<port id="1" precision="FP16">
					<dim>151936</dim>
					<dim>1536</dim>
				</port>
			</output>
		</layer>
		<layer id="20" name="self.model.embed_tokens.weight/zero_point" type="Const" version="opset1">
			<data element_type="u8" shape="151936, 1" offset="233379868" size="151936" />
			<output>
				<port id="0" precision="U8">
					<dim>151936</dim>
					<dim>1</dim>
				</port>
			</output>
		</layer>
		<layer id="21" name="Convert_277222" type="Convert" version="opset1">
			<data destination_type="f16" />
			<input>
				<port id="0" precision="U8">
					<dim>151936</dim>
					<dim>1</dim>
				</port>
			</input>
			<output>
				<port id="1" precision="FP16">
					<dim>151936</dim>
					<dim>1</dim>
				</port>
			</output>
		</layer>
		<layer id="22" name="self.model.embed_tokens.weight/zero_point/subtract" type="Subtract" version="opset1">
			<data auto_broadcast="numpy" />
			<input>
				<port id="0" precision="FP16">
					<dim>151936</dim>
					<dim>1536</dim>
				</port>
				<port id="1" precision="FP16">
					<dim>151936</dim>
					<dim>1</dim>
				</port>
			</input>
			<output>
				<port id="2" precision="FP16">
					<dim>151936</dim>
					<dim>1536</dim>
				</port>
			</output>
		</layer>
		<layer id="23" name="self.model.embed_tokens.weight/scale" type="Const" version="opset1">
			<data element_type="f16" shape="151936, 1" offset="233531804" size="303872" />
			<output>
				<port id="0" precision="FP16">
					<dim>151936</dim>
					<dim>1</dim>
				</port>
			</output>
		</layer>
		<layer id="24" name="self.model.embed_tokens.weight/fq_weights_0" type="Multiply" version="opset1">
			<data auto_broadcast="numpy" />
			<input>
				<port id="0" precision="FP16">
					<dim>151936</dim>
					<dim>1536</dim>
				</port>
				<port id="1" precision="FP16">
					<dim>151936</dim>
					<dim>1</dim>
				</port>
			</input>
			<output>
				<port id="2" precision="FP16">
					<dim>151936</dim>
					<dim>1536</dim>
				</port>
			</output>
		</layer>
		<layer id="25" name="self.model.embed_tokens.weight/fq_weights_0/convert" type="Convert" version="opset1">
			<data destination_type="f32" />
			<input>
				<port id="0" precision="FP16">
					<dim>151936</dim>
					<dim>1536</dim>
				</port>
			</input>
			<output>
				<port id="1" precision="FP32">
					<dim>151936</dim>
					<dim>1536</dim>
				</port>
			</output>
		</layer>
		<layer id="26" name="__module.model.embed_tokens/aten::embedding/Convert" type="Convert" version="opset1">
			<data destination_type="i32" />
			<input>
				<port id="0" precision="I64">
					<dim>-1</dim>
					<dim>-1</dim>
				</port>
			</input>
			<output>
				<port id="1" precision="I32">
					<dim>-1</dim>
					<dim>-1</dim>
				</port>
			</output>
		</layer>
		<layer id="27" name="__module.model.embed_tokens/aten::embedding/Constant" type="Const" version="opset1">
			<data element_type="i32" shape="" offset="0" size="4" />
			<output>
				<port id="0" precision="I32" />
			</output>
		</layer>
		<layer id="28" name="__module.model.embed_tokens/aten::embedding/Gather" type="Gather" version="opset8">
			<data batch_dims="0" />
			<input>
				<port id="0" precision="FP32">
					<dim>151936</dim>
					<dim>1536</dim>
				</port>
				<port id="1" precision="I32">
					<dim>-1</dim>
					<dim>-1</dim>
				</port>
				<port id="2" precision="I32" />
			</input>
			<output>
				<port id="3" precision="FP32" names="283,339,350,hidden_states.1,hidden_states.3">
					<dim>-1</dim>
					<dim>-1</dim>
					<dim>1536</dim>
				</port>
			</output>
		</layer>
		<layer id="29" name="Constant_229717" type="Const" version="opset1">
			<data element_type="f32" shape="1, 1, 1536" offset="233835676" size="6144" />
			<output>
				<port id="0" precision="FP32">
					<dim>1</dim>
					<dim>1</dim>
					<dim>1536</dim>
				</port>
			</output>
		</layer>
		<layer id="30" name="Constant_229716" type="Const" version="opset1">
			<data element_type="f32" shape="1, 1, 1" offset="233841820" size="4" />
			<output>
				<port id="0" precision="FP32">
					<dim>1</dim>
					<dim>1</dim>
					<dim>1</dim>
				</port>
			</output>
		</layer>
		<layer id="31" name="Constant_229714" type="Const" version="opset1">
			<data element_type="f32" shape="1, 1, 1" offset="233841824" size="4" />
			<output>
				<port id="0" precision="FP32">
					<dim>1</dim>
					<dim>1</dim>
					<dim>1</dim>
				</port>
			</output>
		</layer>
		<layer id="32" name="__module.model.layers.0.input_layernorm/aten::pow/Power" type="Power" version="opset1">
			<data auto_broadcast="numpy" />
			<input>
				<port id="0" precision="FP32">
					<dim>-1</dim>
					<dim>-1</dim>
					<dim>1536</dim>
				</port>
				<port id="1" precision="FP32">
					<dim>1</dim>
					<dim>1</dim>
					<dim>1</dim>
				</port>
			</input>
			<output>
				<port id="2" precision="FP32" names="340">
					<dim>-1</dim>
					<dim>-1</dim>
					<dim>1536</dim>
				</port>
			</output>
		</layer>
		<layer id="33" name="Constant_347" type="Const" version="opset1">
			<data element_type="i64" shape="1" offset="233841828" size="8" />
			<output>
				<port id="0" precision="I64" names="341">
					<dim>1</dim>
				</port>
			</output>
		</layer>
		<layer id="34" name="__module.model.layers.0.input_layernorm/aten::mean/ReduceMean" type="ReduceMean" version="opset1">
			<data keep_dims="true" />
			<input>
				<port id="0" precision="FP32">
					<dim>-1</dim>
					<dim>-1</dim>
					<dim>1536</dim>
				</port>
				<port id="1" precision="I64">
					<dim>1</dim>
				</port>
			</input>
			<output>
				<port id="2" precision="FP32" names="342,variance.1">
					<dim>-1</dim>
					<dim>-1</dim>
					<dim>1</dim>
				</port>
			</output>
		</layer>
		<layer id="35" name="Constant_229715" type="Const" version="opset1">
			<data element_type="f32" shape="1, 1, 1" offset="233841836" size="4" />
			<output>
				<port id="0" precision="FP32">
					<dim>1</dim>
					<dim>1</dim>
					<dim>1</dim>
				</port>
			</output>
		</layer>
		<layer id="36" name="__module.model.layers.0.input_layernorm/aten::add/Add" type="Add" version="opset1">
			<data auto_broadcast="numpy" />
			<input>
				<port id="0" precision="FP32">
					<dim>-1</dim>
					<dim>-1</dim>
					<dim>1</dim>
				</port>
				<port id="1" precision="FP32">
					<dim>1</dim>
					<dim>1</dim>
					<dim>1</dim>
				</port>
			</input>
			<output>
				<port id="2" precision="FP32" names="343">
					<dim>-1</dim>
					<dim>-1</dim>
					<dim>1</dim>
				</port>
			</output>
		</layer>
		<layer id="37" name="__module.model.layers.0.input_layernorm/aten::rsqrt/Sqrt" type="Sqrt" version="opset1">
			<input>
				<port id="0" precision="FP32">
					<dim>-1</dim>
					<dim>-1</dim>
					<dim>1</dim>
				</port>
			</input>
			<output>
				<port id="1" precision="FP32">
					<dim>-1</dim>
					<dim>-1</dim>
					<dim>1</dim>
				</port>
			</output>
		</layer>
		<layer id="38" name="__module.model.layers.0.input_layernorm/aten::rsqrt/Divide" type="Divide" version="opset1">
			<data auto_broadcast="numpy" m_pythondiv="true" />
			<input>
				<port id="0" precision="FP32">
					<dim>1</dim>
					<dim>1</dim>
					<dim>1</dim>
				</port>
				<port id="1" precision="FP32">
					<dim>-1</dim>
					<dim>-1</dim>
					<dim>1</dim>
				</port>
			</input>
			<output>
				<port id="2" precision="FP32" names="344">
					<dim>-1</dim>
					<dim>-1</dim>
					<dim>1</dim>
				</port>
			</output>
		</layer>
		<layer id="39" name="__module.model.layers.0.input_layernorm/aten::mul/Multiply" type="Multiply" version="opset1">
			<data auto_broadcast="numpy" />
			<input>
				<port id="0" precision="FP32">
					<dim>-1</dim>
					<dim>-1</dim>
					<dim>1536</dim>
				</port>
				<port id="1" precision="FP32">
					<dim>-1</dim>
					<dim>-1</dim>
					<dim>1</dim>
				</port>
			</input>
			<output>
				<port id="2" precision="FP32" names="345,346,hidden_states.5,hidden_states.7">
					<dim>-1</dim>
					<dim>-1</dim>
					<dim>1536</dim>
				</port>
			</output>
		</layer>
		<layer id="40" name="__module.model.layers.0.input_layernorm/aten::mul/Multiply_1" type="Multiply" version="opset1">
			<data auto_broadcast="numpy" />
			<input>
				<port id="0" precision="FP32">
					<dim>1</dim>
					<dim>1</dim>
					<dim>1536</dim>
				</port>
				<port id="1" precision="FP32">
					<dim>-1</dim>
					<dim>-1</dim>
					<dim>1536</dim>
				</port>
			</input>
			<output>
				<port id="2" precision="FP32" names="347,349,hidden_states.9">
					<dim>-1</dim>
					<dim>-1</dim>
					<dim>1536</dim>
				</port>
			</output>
		</layer>
		<layer id="41" name="self.model.layers.0.self_attn.q_proj.weight" type="Const" version="opset1">
			<data element_type="u4" shape="1536, 12, 128" offset="233841840" size="1179648" />
			<output>
				<port id="0" precision="U4">
					<dim>1536</dim>
					<dim>12</dim>
					<dim>128</dim>
				</port>
			</output>
		</layer>
		<layer id="42" name="Convert_277251" type="Convert" version="opset1">
			<data destination_type="f16" />
			<input>
				<port id="0" precision="U4">
					<dim>1536</dim>
					<dim>12</dim>
					<dim>128</dim>
				</port>
			</input>
			<output>
				<port id="1" precision="FP16">
					<dim>1536</dim>
					<dim>12</dim>
					<dim>128</dim>
				</port>
			</output>
		</layer>
		<layer id="43" name="self.model.layers.0.self_attn.q_proj.weight/zero_point" type="Const" version="opset1">
			<data element_type="u4" shape="1536, 12, 1" offset="235021488" size="9216" />
			<output>
				<port id="0" precision="U4">
					<dim>1536</dim>
					<dim>12</dim>
					<dim>1</dim>
				</port>
			</output>
		</layer>
		<layer id="44" name="Convert_277253" type="Convert" version="opset1">
			<data destination_type="f16" />
			<input>
				<port id="0" precision="U4">
					<dim>1536</dim>
					<dim>12</dim>
					<dim>1</dim>
				</port>
			</input>
			<output>
				<port id="1" precision="FP16">
					<dim>1536</dim>
					<dim>12</dim>
					<dim>1</dim>
				</port>
			</output>
		</layer>
		<layer id="45" name="self.model.layers.0.self_attn.q_proj.weight/zero_point/subtract" type="Subtract" version="opset1">
			<data auto_broadcast="numpy" />
			<input>
				<port id="0" precision="FP16">
					<dim>1536</dim>
					<dim>12</dim>
					<dim>128</dim>
				</port>
				<port id="1" precision="FP16">
					<dim>1536</dim>
					<dim>12</dim>
					<dim>1</dim>
				</port>
			</input>
			<output>
				<port id="2" precision="FP16">
					<dim>1536</dim>
					<dim>12</dim>
					<dim>128</dim>
				</port>
			</output>
		</layer>
		<layer id="46" name="self.model.layers.0.self_attn.q_proj.weight/scale" type="Const" version="opset1">
			<data element_type="f16" shape="1536, 12, 1" offset="235030704" size="36864" />
			<output>
				<port id="0" precision="FP16">
					<dim>1536</dim>
					<dim>12</dim>
					<dim>1</dim>
				</port>
			</output>
		</layer>
		<layer id="47" name="self.model.layers.0.self_attn.q_proj.weight/fq_weights_1" type="Multiply" version="opset1">
			<data auto_broadcast="numpy" />
			<input>
				<port id="0" precision="FP16">
					<dim>1536</dim>
					<dim>12</dim>
					<dim>128</dim>
				</port>
				<port id="1" precision="FP16">
					<dim>1536</dim>
					<dim>12</dim>
					<dim>1</dim>
				</port>
			</input>
			<output>
				<port id="2" precision="FP16">
					<dim>1536</dim>
					<dim>12</dim>
					<dim>128</dim>
				</port>
			</output>
		</layer>
		<layer id="48" name="Constant_277258" type="Const" version="opset1">
			<data element_type="i64" shape="2" offset="235067568" size="16" />
			<output>
				<port id="0" precision="I64">
					<dim>2</dim>
				</port>
			</output>
		</layer>
		<layer id="49" name="Reshape_277259" type="Reshape" version="opset1">
			<data special_zero="false" />
			<input>
				<port id="0" precision="FP16">
					<dim>1536</dim>
					<dim>12</dim>
					<dim>128</dim>
				</port>
				<port id="1" precision="I64">
					<dim>2</dim>
				</port>
			</input>
			<output>
				<port id="2" precision="FP16">
					<dim>1536</dim>
					<dim>1536</dim>
				</port>
			</output>
		</layer>
		<layer id="50" name="self.model.layers.0.self_attn.q_proj.weight/fq_weights_1/convert" type="Convert" version="opset1">
			<data destination_type="f32" />
			<input>
				<port id="0" precision="FP16">
					<dim>1536</dim>
					<dim>1536</dim>
				</port>
			</input>
			<output>
				<port id="1" precision="FP32">
					<dim>1536</dim>
					<dim>1536</dim>
				</port>
			</output>
		</layer>
		<layer id="51" name="__module.model.layers.0.self_attn.q_proj/aten::linear/MatMul" type="MatMul" version="opset1">
			<data transpose_a="false" transpose_b="true" />
			<input>
				<port id="0" precision="FP32">
					<dim>-1</dim>
					<dim>-1</dim>
					<dim>1536</dim>
				</port>
				<port id="1" precision="FP32">
					<dim>1536</dim>
					<dim>1536</dim>
				</port>
			</input>
			<output>
				<port id="2" precision="FP32">
					<dim>-1</dim>
					<dim>-1</dim>
					<dim>1536</dim>
				</port>
			</output>
		</layer>
		<layer id="52" name="Constant_229718" type="Const" version="opset1">
			<data element_type="f32" shape="1, 1, 1536" offset="235067584" size="6144" />
			<output>
				<port id="0" precision="FP32">
					<dim>1</dim>
					<dim>1</dim>
					<dim>1536</dim>
				</port>
			</output>
		</layer>
		<layer id="53" name="__module.model.layers.0.self_attn.q_proj/aten::linear/Add" type="Add" version="opset1">
			<data auto_broadcast="numpy" />
			<input>
				<port id="0" precision="FP32">
					<dim>-1</dim>
					<dim>-1</dim>
					<dim>1536</dim>
				</port>
				<port id="1" precision="FP32">
					<dim>1</dim>
					<dim>1</dim>
					<dim>1536</dim>
				</port>
			</input>
			<output>
				<port id="2" precision="FP32" names="360,query_states.1">
					<dim>-1</dim>
					<dim>-1</dim>
					<dim>1536</dim>
				</port>
			</output>
		</layer>
		<layer id="54" name="Constant_238686" type="Const" version="opset1">
			<data element_type="i64" shape="4" offset="235073728" size="32" />
			<output>
				<port id="0" precision="I64">
					<dim>4</dim>
				</port>
			</output>
		</layer>
		<layer id="55" name="__module.model.layers.0.self_attn/aten::view/Reshape" type="Reshape" version="opset1">
			<data special_zero="true" />
			<input>
				<port id="0" precision="FP32">
					<dim>-1</dim>
					<dim>-1</dim>
					<dim>1536</dim>
				</port>
				<port id="1" precision="I64">
					<dim>4</dim>
				</port>
			</input>
			<output>
				<port id="2" precision="FP32" names="368">
					<dim>-1</dim>
					<dim>-1</dim>
					<dim>12</dim>
					<dim>128</dim>
				</port>
			</output>
		</layer>
		<layer id="56" name="__module.model.layers.0.self_attn/aten::transpose/ScatterElementsUpdate" type="Const" version="opset1">
			<data element_type="i32" shape="4" offset="235073760" size="16" />
			<output>
				<port id="0" precision="I32">
					<dim>4</dim>
				</port>
			</output>
		</layer>
		<layer id="57" name="__module.model.layers.0.self_attn/aten::transpose/Transpose" type="Transpose" version="opset1">
			<input>
				<port id="0" precision="FP32">
					<dim>-1</dim>
					<dim>-1</dim>
					<dim>12</dim>
					<dim>128</dim>
				</port>
				<port id="1" precision="I32">
					<dim>4</dim>
				</port>
			</input>
			<output>
				<port id="2" precision="FP32" names="369,q.1">
					<dim>-1</dim>
					<dim>12</dim>
					<dim>-1</dim>
					<dim>128</dim>
				</port>
			</output>
		</layer>
		<layer id="58" name="self.model.layers.0.self_attn.rotary_emb.cos_cached" type="Const" version="opset1">
			<data element_type="f32" shape="32768, 128" offset="235073776" size="16777216" />
			<output>
				<port id="0" precision="FP32" names="self.model.layers.0.self_attn.rotary_emb.cos_cached">
					<dim>32768</dim>
					<dim>128</dim>
				</port>
			</output>
		</layer>
		<layer id="59" name="__module.model.layers.0.self_attn.rotary_emb/aten::slice/Unsqueeze" type="Const" version="opset1">
			<data element_type="i64" shape="1" offset="4" size="8" />
			<output>
				<port id="0" precision="I64">
					<dim>1</dim>
				</port>
			</output>
		</layer>
		<layer id="60" name="ShapeOf_237668" type="ShapeOf" version="opset3">
			<data output_type="i64" />
			<input>
				<port id="0" precision="I64">
					<dim>-1</dim>
					<dim>-1</dim>
				</port>
			</input>
			<output>
				<port id="1" precision="I64">
					<dim>2</dim>
				</port>
			</output>
		</layer>
		<layer id="61" name="Constant_237669" type="Const" version="opset1">
			<data element_type="i64" shape="" offset="251850992" size="8" />
			<output>
				<port id="0" precision="I64" />
			</output>
		</layer>
		<layer id="62" name="Constant_237670" type="Const" version="opset1">
			<data element_type="i64" shape="" offset="4" size="8" />
			<output>
				<port id="0" precision="I64" />
			</output>
		</layer>
		<layer id="63" name="Gather_237671" type="Gather" version="opset8">
			<data batch_dims="0" />
			<input>
				<port id="0" precision="I64">
					<dim>2</dim>
				</port>
				<port id="1" precision="I64" />
				<port id="2" precision="I64" />
			</input>
			<output>
				<port id="3" precision="I64" names="1071,1244,1417,1590,1763,1936,2109,2282,2455,2628,272,2801,2974,3147,3320,3493,3666,376,3839,4012,4185,4358,4531,4704,4877,5050,552,725,898" />
			</output>
		</layer>
		<layer id="64" name="Constant_237678" type="Const" version="opset1">
			<data element_type="i64" shape="1" offset="251850992" size="8" />
			<output>
				<port id="0" precision="I64">
					<dim>1</dim>
				</port>
			</output>
		</layer>
		<layer id="65" name="Reshape_237679" type="Reshape" version="opset1">
			<data special_zero="false" />
			<input>
				<port id="0" precision="I64" />
				<port id="1" precision="I64">
					<dim>1</dim>
				</port>
			</input>
			<output>
				<port id="2" precision="I64">
					<dim>1</dim>
				</port>
			</output>
		</layer>
		<layer id="66" name="Constant_271088" type="Const" version="opset1">
			<data element_type="f32" shape="" offset="0" size="4" />
			<output>
				<port id="0" precision="FP32" />
			</output>
		</layer>
		<layer id="67" name="Constant_271081" type="Const" version="opset1">
			<data element_type="i64" shape="1" offset="12" size="8" />
			<output>
				<port id="0" precision="I64">
					<dim>1</dim>
				</port>
			</output>
		</layer>
		<layer id="68" name="Constant_271083" type="Const" version="opset1">
			<data element_type="i64" shape="1" offset="4" size="8" />
			<output>
				<port id="0" precision="I64">
					<dim>1</dim>
				</port>
			</output>
		</layer>
		<layer id="69" name="Constant_271085" type="Const" version="opset1">
			<data element_type="i64" shape="1" offset="20" size="8" />
			<output>
				<port id="0" precision="I64">
					<dim>1</dim>
				</port>
			</output>
		</layer>
		<layer id="70" name="Concat_271086" type="Concat" version="opset1">
			<data axis="0" />
			<input>
				<port id="0" precision="I64">
					<dim>1</dim>
				</port>
				<port id="1" precision="I64">
					<dim>1</dim>
				</port>
				<port id="2" precision="I64">
					<dim>1</dim>
				</port>
				<port id="3" precision="I64">
					<dim>1</dim>
				</port>
			</input>
			<output>
				<port id="4" precision="I64">
					<dim>4</dim>
				</port>
			</output>
		</layer>
		<layer id="71" name="Broadcast_271089" type="Broadcast" version="opset3">
			<data mode="numpy" />
			<input>
				<port id="0" precision="FP32" />
				<port id="1" precision="I64">
					<dim>4</dim>
				</port>
			</input>
			<output>
				<port id="2" precision="FP32">
					<dim>-1</dim>
					<dim>2</dim>
					<dim>0</dim>
					<dim>128</dim>
				</port>
			</output>
		</layer>
		<layer id="72" name="ReadValue_265695" type="ReadValue" version="opset6">
			<data variable_id="past_key_values.0.keypresent.0.key" variable_type="f32" variable_shape="?,2,?,128" />
			<input>
				<port id="0" precision="FP32">
					<dim>-1</dim>
					<dim>2</dim>
					<dim>0</dim>
					<dim>128</dim>
				</port>
			</input>
			<output>
				<port id="1" precision="FP32" names="past_key_values.0.key">
					<dim>-1</dim>
					<dim>2</dim>
					<dim>-1</dim>
					<dim>128</dim>
				</port>
			</output>
		</layer>
		<layer id="73" name="Constant_260274" type="Const" version="opset1">
			<data element_type="i64" shape="" offset="4" size="8" />
			<output>
				<port id="0" precision="I64" />
			</output>
		</layer>
		<layer id="74" name="Gather_260275" type="Gather" version="opset8">
			<data batch_dims="0" />
			<input>
				<port id="0" precision="FP32">
					<dim>-1</dim>
					<dim>2</dim>
					<dim>-1</dim>
					<dim>128</dim>
				</port>
				<port id="1" precision="I32">
					<dim>-1</dim>
				</port>
				<port id="2" precision="I64" />
			</input>
			<output>
				<port id="3" precision="FP32">
					<dim>-1</dim>
					<dim>2</dim>
					<dim>-1</dim>
					<dim>128</dim>
				</port>
			</output>
		</layer>
		<layer id="75" name="ShapeOf_237673" type="ShapeOf" version="opset3">
			<data output_type="i64" />
			<input>
				<port id="0" precision="FP32">
					<dim>-1</dim>
					<dim>2</dim>
					<dim>-1</dim>
					<dim>128</dim>
				</port>
			</input>
			<output>
				<port id="1" precision="I64">
					<dim>4</dim>
				</port>
			</output>
		</layer>
		<layer id="76" name="Constant_237674" type="Const" version="opset1">
			<data element_type="i64" shape="" offset="12" size="8" />
			<output>
				<port id="0" precision="I64" />
			</output>
		</layer>
		<layer id="77" name="Constant_237675" type="Const" version="opset1">
			<data element_type="i64" shape="" offset="4" size="8" />
			<output>
				<port id="0" precision="I64" />
			</output>
		</layer>
		<layer id="78" name="Gather_237676" type="Gather" version="opset8">
			<data batch_dims="0" />
			<input>
				<port id="0" precision="I64">
					<dim>4</dim>
				</port>
				<port id="1" precision="I64" />
				<port id="2" precision="I64" />
			</input>
			<output>
				<port id="3" precision="I64" names="277,378" />
			</output>
		</layer>
		<layer id="79" name="Constant_237322" type="Const" version="opset1">
			<data element_type="i64" shape="1" offset="251850992" size="8" />
			<output>
				<port id="0" precision="I64">
					<dim>1</dim>
				</port>
			</output>
		</layer>
		<layer id="80" name="Reshape_238935" type="Reshape" version="opset1">
			<data special_zero="false" />
			<input>
				<port id="0" precision="I64" />
				<port id="1" precision="I64">
					<dim>1</dim>
				</port>
			</input>
			<output>
				<port id="2" precision="I64">
					<dim>1</dim>
				</port>
			</output>
		</layer>
		<layer id="81" name="__module.model.layers.0.self_attn/aten::add_/Add" type="Add" version="opset1">
			<data auto_broadcast="numpy" />
			<input>
				<port id="0" precision="I64">
					<dim>1</dim>
				</port>
				<port id="1" precision="I64">
					<dim>1</dim>
				</port>
			</input>
			<output>
				<port id="2" precision="I64" names="377,381,382,kv_seq_len.1">
					<dim>1</dim>
				</port>
			</output>
		</layer>
		<layer id="82" name="__module.model.layers.0.self_attn.rotary_emb/aten::slice/Unsqueeze_2" type="Const" version="opset1">
			<data element_type="i64" shape="1" offset="251850992" size="8" />
			<output>
				<port id="0" precision="I64">
					<dim>1</dim>
				</port>
			</output>
		</layer>
		<layer id="83" name="__module.model.layers.0.self_attn.rotary_emb/aten::slice/Slice" type="StridedSlice" version="opset1">
			<data begin_mask="0" end_mask="0" new_axis_mask="" shrink_axis_mask="" ellipsis_mask="" />
			<input>
				<port id="0" precision="FP32">
					<dim>32768</dim>
					<dim>128</dim>
				</port>
				<port id="1" precision="I64">
					<dim>1</dim>
				</port>
				<port id="2" precision="I64">
					<dim>1</dim>
				</port>
				<port id="3" precision="I64">
					<dim>1</dim>
				</port>
			</input>
			<output>
				<port id="4" precision="FP32" names="385,386,390,cos.1">
					<dim>-1</dim>
					<dim>128</dim>
				</port>
			</output>
		</layer>
		<layer id="84" name="__module.model/prim::ListConstruct/Reshape" type="Const" version="opset1">
			<data element_type="i64" shape="1" offset="233841828" size="8" />
			<output>
				<port id="0" precision="I64">
					<dim>1</dim>
				</port>
			</output>
		</layer>
		<layer id="85" name="__module.model/prim::ListConstruct/Concat" type="Concat" version="opset1">
			<data axis="0" />
			<input>
				<port id="0" precision="I64">
					<dim>1</dim>
				</port>
				<port id="1" precision="I64">
					<dim>1</dim>
				</port>
			</input>
			<output>
				<port id="2" precision="I64" names="279">
					<dim>2</dim>
				</port>
			</output>
		</layer>
		<layer id="86" name="__module.model/aten::view/Reshape" type="Reshape" version="opset1">
			<data special_zero="false" />
			<input>
				<port id="0" precision="I64">
					<dim>-1</dim>
					<dim>-1</dim>
				</port>
				<port id="1" precision="I64">
					<dim>2</dim>
				</port>
			</input>
			<output>
				<port id="2" precision="I64" names="280,281,position_ids">
					<dim>-1</dim>
					<dim>-1</dim>
				</port>
			</output>
		</layer>
		<layer id="87" name="__module.model.layers.0.self_attn/aten::index/Convert" type="Convert" version="opset1">
			<data destination_type="i32" />
			<input>
				<port id="0" precision="I64">
					<dim>-1</dim>
					<dim>-1</dim>
				</port>
			</input>
			<output>
				<port id="1" precision="I32">
					<dim>-1</dim>
					<dim>-1</dim>
				</port>
			</output>
		</layer>
		<layer id="88" name="Constant_26383" type="Const" version="opset1">
			<data element_type="i32" shape="" offset="0" size="4" />
			<output>
				<port id="0" precision="I32" />
			</output>
		</layer>
		<layer id="89" name="__module.model.layers.0.self_attn/aten::index/Gather" type="Gather" version="opset8">
			<data batch_dims="0" />
			<input>
				<port id="0" precision="FP32">
					<dim>-1</dim>
					<dim>128</dim>
				</port>
				<port id="1" precision="I32">
					<dim>-1</dim>
					<dim>-1</dim>
				</port>
				<port id="2" precision="I32" />
			</input>
			<output>
				<port id="3" precision="FP32" names="393">
					<dim>-1</dim>
					<dim>-1</dim>
					<dim>128</dim>
				</port>
			</output>
		</layer>
		<layer id="90" name="213" type="Const" version="opset1">
			<data element_type="i64" shape="" offset="251850992" size="8" />
			<output>
				<port id="0" precision="I64" names="213" />
			</output>
		</layer>
		<layer id="91" name="__module.model.layers.0.self_attn/aten::unsqueeze/Unsqueeze" type="Unsqueeze" version="opset1">
			<input>
				<port id="0" precision="FP32">
					<dim>-1</dim>
					<dim>-1</dim>
					<dim>128</dim>
				</port>
				<port id="1" precision="I64" />
			</input>
			<output>
				<port id="2" precision="FP32" names="394,cos.3">
					<dim>-1</dim>
					<dim>1</dim>
					<dim>-1</dim>
					<dim>128</dim>
				</port>
			</output>
		</layer>
		<layer id="92" name="__module.model.layers.0.self_attn/aten::mul/Multiply" type="Multiply" version="opset1">
			<data auto_broadcast="numpy" />
			<input>
				<port id="0" precision="FP32">
					<dim>-1</dim>
					<dim>12</dim>
					<dim>-1</dim>
					<dim>128</dim>
				</port>
				<port id="1" precision="FP32">
					<dim>-1</dim>
					<dim>1</dim>
					<dim>-1</dim>
					<dim>128</dim>
				</port>
			</input>
			<output>
				<port id="2" precision="FP32" names="398">
					<dim>-1</dim>
					<dim>12</dim>
					<dim>-1</dim>
					<dim>128</dim>
				</port>
			</output>
		</layer>
		<layer id="93" name="Constant_208090" type="Const" version="opset1">
			<data element_type="i64" shape="4" offset="251851000" size="32" />
			<output>
				<port id="0" precision="I64">
					<dim>4</dim>
				</port>
			</output>
		</layer>
		<layer id="94" name="Constant_208089" type="Const" version="opset1">
			<data element_type="i64" shape="1" offset="251851032" size="8" />
			<output>
				<port id="0" precision="I64">
					<dim>1</dim>
				</port>
			</output>
		</layer>
		<layer id="95" name="__module.model.layers.0.self_attn/aten::size/ShapeOf_5" type="ShapeOf" version="opset3">
			<data output_type="i64" />
			<input>
				<port id="0" precision="FP32">
					<dim>-1</dim>
					<dim>12</dim>
					<dim>-1</dim>
					<dim>128</dim>
				</port>
			</input>
			<output>
				<port id="1" precision="I64">
					<dim>4</dim>
				</port>
			</output>
		</layer>
		<layer id="96" name="198" type="Const" version="opset1">
			<data element_type="i64" shape="" offset="251851032" size="8" />
			<output>
				<port id="0" precision="I64" names="198" />
			</output>
		</layer>
		<layer id="97" name="__module.model.layers.0.self_attn/aten::size/Constant_5" type="Const" version="opset1">
			<data element_type="i32" shape="" offset="0" size="4" />
			<output>
				<port id="0" precision="I32" />
			</output>
		</layer>
		<layer id="98" name="__module.model.layers.0.self_attn/aten::size/Gather_5" type="Gather" version="opset8">
			<data batch_dims="0" />
			<input>
				<port id="0" precision="I64">
					<dim>4</dim>
				</port>
				<port id="1" precision="I64" />
				<port id="2" precision="I32" />
			</input>
			<output>
				<port id="3" precision="I64" names="399,404" />
			</output>
		</layer>
		<layer id="99" name="Constant_47" type="Const" version="opset1">
			<data element_type="i64" shape="" offset="12" size="8" />
			<output>
				<port id="0" precision="I64" names="194" />
			</output>
		</layer>
		<layer id="100" name="__module.model.layers.0.self_attn/aten::floor_divide/Divide_1" type="Divide" version="opset1">
			<data auto_broadcast="numpy" m_pythondiv="true" />
			<input>
				<port id="0" precision="I64" />
				<port id="1" precision="I64" />
			</input>
			<output>
				<port id="2" precision="I64" />
			</output>
		</layer>
		<layer id="101" name="__module.model.layers.0.self_attn/aten::floor_divide/Floor_1" type="Floor" version="opset1">
			<input>
				<port id="0" precision="I64" />
			</input>
			<output>
				<port id="1" precision="I64" names="401,402,406,407" />
			</output>
		</layer>
		<layer id="102" name="Constant_237324" type="Const" version="opset1">
			<data element_type="i64" shape="1" offset="251850992" size="8" />
			<output>
				<port id="0" precision="I64">
					<dim>1</dim>
				</port>
			</output>
		</layer>
		<layer id="103" name="__module.model.layers.0.self_attn/aten::slice/Unsqueeze_5" type="Reshape" version="opset1">
			<data special_zero="false" />
			<input>
				<port id="0" precision="I64" />
				<port id="1" precision="I64">
					<dim>1</dim>
				</port>
			</input>
			<output>
				<port id="2" precision="I64">
					<dim>1</dim>
				</port>
			</output>
		</layer>
		<layer id="104" name="Constant_208088" type="Const" version="opset1">
			<data element_type="i32" shape="1" offset="0" size="4" />
			<output>
				<port id="0" precision="I32">
					<dim>1</dim>
				</port>
			</output>
		</layer>
		<layer id="105" name="ScatterUpdate_208091" type="ScatterUpdate" version="opset3">
			<input>
				<port id="0" precision="I64">
					<dim>4</dim>
				</port>
				<port id="1" precision="I64">
					<dim>1</dim>
				</port>
				<port id="2" precision="I64">
					<dim>1</dim>
				</port>
				<port id="3" precision="I32">
					<dim>1</dim>
				</port>
			</input>
			<output>
				<port id="4" precision="I64">
					<dim>4</dim>
				</port>
			</output>
		</layer>
		<layer id="106" name="Constant_208094" type="Const" version="opset1">
			<data element_type="i64" shape="4" offset="251851040" size="32" />
			<output>
				<port id="0" precision="I64">
					<dim>4</dim>
				</port>
			</output>
		</layer>
		<layer id="107" name="Constant_208097" type="Const" version="opset1">
			<data element_type="i64" shape="4" offset="251851072" size="32" />
			<output>
				<port id="0" precision="I64">
					<dim>4</dim>
				</port>
			</output>
		</layer>
		<layer id="108" name="__module.model.layers.0.self_attn/aten::slice/Slice" type="StridedSlice" version="opset1">
			<data begin_mask="1, 1, 1, 0" end_mask="1, 1, 1, 0" new_axis_mask="" shrink_axis_mask="" ellipsis_mask="" />
			<input>
				<port id="0" precision="FP32">
					<dim>-1</dim>
					<dim>12</dim>
					<dim>-1</dim>
					<dim>128</dim>
				</port>
				<port id="1" precision="I64">
					<dim>4</dim>
				</port>
				<port id="2" precision="I64">
					<dim>4</dim>
				</port>
				<port id="3" precision="I64">
					<dim>4</dim>
				</port>
			</input>
			<output>
				<port id="4" precision="FP32" names="408,x2.1">
					<dim>-1</dim>
					<dim>12</dim>
					<dim>-1</dim>
					<dim>64</dim>
				</port>
			</output>
		</layer>
		<layer id="109" name="Constant_229720" type="Const" version="opset1">
			<data element_type="f32" shape="1, 1, 1, 1" offset="251851104" size="4" />
			<output>
				<port id="0" precision="FP32">
					<dim>1</dim>
					<dim>1</dim>
					<dim>1</dim>
					<dim>1</dim>
				</port>
			</output>
		</layer>
		<layer id="110" name="__module.model.layers.0.self_attn/aten::neg/Multiply" type="Multiply" version="opset1">
			<data auto_broadcast="numpy" />
			<input>
				<port id="0" precision="FP32">
					<dim>-1</dim>
					<dim>12</dim>
					<dim>-1</dim>
					<dim>64</dim>
				</port>
				<port id="1" precision="FP32">
					<dim>1</dim>
					<dim>1</dim>
					<dim>1</dim>
					<dim>1</dim>
				</port>
			</input>
			<output>
				<port id="2" precision="FP32" names="409">
					<dim>-1</dim>
					<dim>12</dim>
					<dim>-1</dim>
					<dim>64</dim>
				</port>
			</output>
		</layer>
		<layer id="111" name="Constant_208142" type="Const" version="opset1">
			<data element_type="i64" shape="4" offset="251851000" size="32" />
			<output>
				<port id="0" precision="I64">
					<dim>4</dim>
				</port>
			</output>
		</layer>
		<layer id="112" name="Constant_208147" type="Const" version="opset1">
			<data element_type="i64" shape="4" offset="251851072" size="32" />
			<output>
				<port id="0" precision="I64">
					<dim>4</dim>
				</port>
			</output>
		</layer>
		<layer id="113" name="__module.model.layers.0.self_attn/aten::slice/Slice_1" type="StridedSlice" version="opset1">
			<data begin_mask="1, 1, 1, 0" end_mask="1, 1, 1, 0" new_axis_mask="" shrink_axis_mask="" ellipsis_mask="" />
			<input>
				<port id="0" precision="FP32">
					<dim>-1</dim>
					<dim>12</dim>
					<dim>-1</dim>
					<dim>128</dim>
				</port>
				<port id="1" precision="I64">
					<dim>4</dim>
				</port>
				<port id="2" precision="I64">
					<dim>4</dim>
				</port>
				<port id="3" precision="I64">
					<dim>4</dim>
				</port>
			</input>
			<output>
				<port id="4" precision="FP32" names="403">
					<dim>-1</dim>
					<dim>12</dim>
					<dim>-1</dim>
					<dim>64</dim>
				</port>
			</output>
		</layer>
		<layer id="114" name="__module.model.layers.0.self_attn/aten::cat/Concat" type="Concat" version="opset1">
			<data axis="-1" />
			<input>
				<port id="0" precision="FP32">
					<dim>-1</dim>
					<dim>12</dim>
					<dim>-1</dim>
					<dim>64</dim>
				</port>
				<port id="1" precision="FP32">
					<dim>-1</dim>
					<dim>12</dim>
					<dim>-1</dim>
					<dim>64</dim>
				</port>
			</input>
			<output>
				<port id="2" precision="FP32" names="411">
					<dim>-1</dim>
					<dim>12</dim>
					<dim>-1</dim>
					<dim>128</dim>
				</port>
			</output>
		</layer>
		<layer id="115" name="self.model.layers.0.self_attn.rotary_emb.sin_cached" type="Const" version="opset1">
			<data element_type="f32" shape="32768, 128" offset="251851108" size="16777216" />
			<output>
				<port id="0" precision="FP32" names="self.model.layers.0.self_attn.rotary_emb.sin_cached">
					<dim>32768</dim>
					<dim>128</dim>
				</port>
			</output>
		</layer>
		<layer id="116" name="__module.model.layers.0.self_attn.rotary_emb/aten::slice/Unsqueeze_4" type="Const" version="opset1">
			<data element_type="i64" shape="1" offset="4" size="8" />
			<output>
				<port id="0" precision="I64">
					<dim>1</dim>
				</port>
			</output>
		</layer>
		<layer id="117" name="__module.model.layers.0.self_attn.rotary_emb/aten::slice/Unsqueeze_6" type="Const" version="opset1">
			<data element_type="i64" shape="1" offset="251850992" size="8" />
			<output>
				<port id="0" precision="I64">
					<dim>1</dim>
				</port>
			</output>
		</layer>
		<layer id="118" name="__module.model.layers.0.self_attn.rotary_emb/aten::slice/Slice_1" type="StridedSlice" version="opset1">
			<data begin_mask="0" end_mask="0" new_axis_mask="" shrink_axis_mask="" ellipsis_mask="" />
			<input>
				<port id="0" precision="FP32">
					<dim>32768</dim>
					<dim>128</dim>
				</port>
				<port id="1" precision="I64">
					<dim>1</dim>
				</port>
				<port id="2" precision="I64">
					<dim>1</dim>
				</port>
				<port id="3" precision="I64">
					<dim>1</dim>
				</port>
			</input>
			<output>
				<port id="4" precision="FP32" names="387,388,391,sin.1">
					<dim>-1</dim>
					<dim>128</dim>
				</port>
			</output>
		</layer>
		<layer id="119" name="Constant_26386" type="Const" version="opset1">
			<data element_type="i32" shape="" offset="0" size="4" />
			<output>
				<port id="0" precision="I32" />
			</output>
		</layer>
		<layer id="120" name="__module.model.layers.0.self_attn/aten::index/Gather_1" type="Gather" version="opset8">
			<data batch_dims="0" />
			<input>
				<port id="0" precision="FP32">
					<dim>-1</dim>
					<dim>128</dim>
				</port>
				<port id="1" precision="I32">
					<dim>-1</dim>
					<dim>-1</dim>
				</port>
				<port id="2" precision="I32" />
			</input>
			<output>
				<port id="3" precision="FP32" names="396">
					<dim>-1</dim>
					<dim>-1</dim>
					<dim>128</dim>
				</port>
			</output>
		</layer>
		<layer id="121" name="__module.model.layers.0.self_attn/aten::unsqueeze/Unsqueeze_1" type="Unsqueeze" version="opset1">
			<input>
				<port id="0" precision="FP32">
					<dim>-1</dim>
					<dim>-1</dim>
					<dim>128</dim>
				</port>
				<port id="1" precision="I64" />
			</input>
			<output>
				<port id="2" precision="FP32" names="397,sin.3">
					<dim>-1</dim>
					<dim>1</dim>
					<dim>-1</dim>
					<dim>128</dim>
				</port>
			</output>
		</layer>
		<layer id="122" name="__module.model.layers.0.self_attn/aten::mul/Multiply_1" type="Multiply" version="opset1">
			<data auto_broadcast="numpy" />
			<input>
				<port id="0" precision="FP32">
					<dim>-1</dim>
					<dim>12</dim>
					<dim>-1</dim>
					<dim>128</dim>
				</port>
				<port id="1" precision="FP32">
					<dim>-1</dim>
					<dim>1</dim>
					<dim>-1</dim>
					<dim>128</dim>
				</port>
			</input>
			<output>
				<port id="2" precision="FP32" names="412">
					<dim>-1</dim>
					<dim>12</dim>
					<dim>-1</dim>
					<dim>128</dim>
				</port>
			</output>
		</layer>
		<layer id="123" name="__module.model.layers.0.self_attn/aten::add/Add" type="Add" version="opset1">
			<data auto_broadcast="numpy" />
			<input>
				<port id="0" precision="FP32">
					<dim>-1</dim>
					<dim>12</dim>
					<dim>-1</dim>
					<dim>128</dim>
				</port>
				<port id="1" precision="FP32">
					<dim>-1</dim>
					<dim>12</dim>
					<dim>-1</dim>
					<dim>128</dim>
				</port>
			</input>
			<output>
				<port id="2" precision="FP32" names="413">
					<dim>-1</dim>
					<dim>12</dim>
					<dim>-1</dim>
					<dim>128</dim>
				</port>
			</output>
		</layer>
		<layer id="124" name="self.model.layers.0.self_attn.k_proj.weight" type="Const" version="opset1">
			<data element_type="u4" shape="256, 12, 128" offset="268628324" size="196608" />
			<output>
				<port id="0" precision="U4">
					<dim>256</dim>
					<dim>12</dim>
					<dim>128</dim>
				</port>
			</output>
		</layer>
		<layer id="125" name="Convert_277240" type="Convert" version="opset1">
			<data destination_type="f16" />
			<input>
				<port id="0" precision="U4">
					<dim>256</dim>
					<dim>12</dim>
					<dim>128</dim>
				</port>
			</input>
			<output>
				<port id="1" precision="FP16">
					<dim>256</dim>
					<dim>12</dim>
					<dim>128</dim>
				</port>
			</output>
		</layer>
		<layer id="126" name="self.model.layers.0.self_attn.k_proj.weight/zero_point" type="Const" version="opset1">
			<data element_type="u4" shape="256, 12, 1" offset="268824932" size="1536" />
			<output>
				<port id="0" precision="U4">
					<dim>256</dim>
					<dim>12</dim>
					<dim>1</dim>
				</port>
			</output>
		</layer>
		<layer id="127" name="Convert_277242" type="Convert" version="opset1">
			<data destination_type="f16" />
			<input>
				<port id="0" precision="U4">
					<dim>256</dim>
					<dim>12</dim>
					<dim>1</dim>
				</port>
			</input>
			<output>
				<port id="1" precision="FP16">
					<dim>256</dim>
					<dim>12</dim>
					<dim>1</dim>
				</port>
			</output>
		</layer>
		<layer id="128" name="self.model.layers.0.self_attn.k_proj.weight/zero_point/subtract" type="Subtract" version="opset1">
			<data auto_broadcast="numpy" />
			<input>
				<port id="0" precision="FP16">
					<dim>256</dim>
					<dim>12</dim>
					<dim>128</dim>
				</port>
				<port id="1" precision="FP16">
					<dim>256</dim>
					<dim>12</dim>
					<dim>1</dim>
				</port>
			</input>
			<output>
				<port id="2" precision="FP16">
					<dim>256</dim>
					<dim>12</dim>
					<dim>128</dim>
				</port>
			</output>
		</layer>
		<layer id="129" name="self.model.layers.0.self_attn.k_proj.weight/scale" type="Const" version="opset1">
			<data element_type="f16" shape="256, 12, 1" offset="268826468" size="6144" />
			<output>
				<port id="0" precision="FP16">
					<dim>256</dim>
					<dim>12</dim>
					<dim>1</dim>
				</port>
			</output>
		</layer>
		<layer id="130" name="self.model.layers.0.self_attn.k_proj.weight/fq_weights_1" type="Multiply" version="opset1">
			<data auto_broadcast="numpy" />
			<input>
				<port id="0" precision="FP16">
					<dim>256</dim>
					<dim>12</dim>
					<dim>128</dim>
				</port>
				<port id="1" precision="FP16">
					<dim>256</dim>
					<dim>12</dim>
					<dim>1</dim>
				</port>
			</input>
			<output>
				<port id="2" precision="FP16">
					<dim>256</dim>
					<dim>12</dim>
					<dim>128</dim>
				</port>
			</output>
		</layer>
		<layer id="131" name="Constant_277247" type="Const" version="opset1">
			<data element_type="i64" shape="2" offset="268832612" size="16" />
			<output>
				<port id="0" precision="I64">
					<dim>2</dim>
				</port>
			</output>
		</layer>
		<layer id="132" name="Reshape_277248" type="Reshape" version="opset1">
			<data special_zero="false" />
			<input>
				<port id="0" precision="FP16">
					<dim>256</dim>
					<dim>12</dim>
					<dim>128</dim>
				</port>
				<port id="1" precision="I64">
					<dim>2</dim>
				</port>
			</input>
			<output>
				<port id="2" precision="FP16">
					<dim>256</dim>
					<dim>1536</dim>
				</port>
			</output>
		</layer>
		<layer id="133" name="self.model.layers.0.self_attn.k_proj.weight/fq_weights_1/convert" type="Convert" version="opset1">
			<data destination_type="f32" />
			<input>
				<port id="0" precision="FP16">
					<dim>256</dim>
					<dim>1536</dim>
				</port>
			</input>
			<output>
				<port id="1" precision="FP32">
					<dim>256</dim>
					<dim>1536</dim>
				</port>
			</output>
		</layer>
		<layer id="134" name="__module.model.layers.0.self_attn.k_proj/aten::linear/MatMul" type="MatMul" version="opset1">
			<data transpose_a="false" transpose_b="true" />
			<input>
				<port id="0" precision="FP32">
					<dim>-1</dim>
					<dim>-1</dim>
					<dim>1536</dim>
				</port>
				<port id="1" precision="FP32">
					<dim>256</dim>
					<dim>1536</dim>
				</port>
			</input>
			<output>
				<port id="2" precision="FP32">
					<dim>-1</dim>
					<dim>-1</dim>
					<dim>256</dim>
				</port>
			</output>
		</layer>
		<layer id="135" name="Constant_229719" type="Const" version="opset1">
			<data element_type="f32" shape="1, 1, 256" offset="268832628" size="1024" />
			<output>
				<port id="0" precision="FP32">
					<dim>1</dim>
					<dim>1</dim>
					<dim>256</dim>
				</port>
			</output>
		</layer>
		<layer id="136" name="__module.model.layers.0.self_attn.k_proj/aten::linear/Add" type="Add" version="opset1">
			<data auto_broadcast="numpy" />
			<input>
				<port id="0" precision="FP32">
					<dim>-1</dim>
					<dim>-1</dim>
					<dim>256</dim>
				</port>
				<port id="1" precision="FP32">
					<dim>1</dim>
					<dim>1</dim>
					<dim>256</dim>
				</port>
			</input>
			<output>
				<port id="2" precision="FP32" names="363,key_states.3">
					<dim>-1</dim>
					<dim>-1</dim>
					<dim>256</dim>
				</port>
			</output>
		</layer>
		<layer id="137" name="Constant_238687" type="Const" version="opset1">
			<data element_type="i64" shape="4" offset="268833652" size="32" />
			<output>
				<port id="0" precision="I64">
					<dim>4</dim>
				</port>
			</output>
		</layer>
		<layer id="138" name="__module.model.layers.0.self_attn/aten::view/Reshape_1" type="Reshape" version="opset1">
			<data special_zero="true" />
			<input>
				<port id="0" precision="FP32">
					<dim>-1</dim>
					<dim>-1</dim>
					<dim>256</dim>
				</port>
				<port id="1" precision="I64">
					<dim>4</dim>
				</port>
			</input>
			<output>
				<port id="2" precision="FP32" names="371">
					<dim>-1</dim>
					<dim>-1</dim>
					<dim>2</dim>
					<dim>128</dim>
				</port>
			</output>
		</layer>
		<layer id="139" name="__module.model.layers.0.self_attn/aten::transpose/ScatterElementsUpdate_1" type="Const" version="opset1">
			<data element_type="i32" shape="4" offset="235073760" size="16" />
			<output>
				<port id="0" precision="I32">
					<dim>4</dim>
				</port>
			</output>
		</layer>
		<layer id="140" name="__module.model.layers.0.self_attn/aten::transpose/Transpose_1" type="Transpose" version="opset1">
			<input>
				<port id="0" precision="FP32">
					<dim>-1</dim>
					<dim>-1</dim>
					<dim>2</dim>
					<dim>128</dim>
				</port>
				<port id="1" precision="I32">
					<dim>4</dim>
				</port>
			</input>
			<output>
				<port id="2" precision="FP32" names="372,key_states.5">
					<dim>-1</dim>
					<dim>2</dim>
					<dim>-1</dim>
					<dim>128</dim>
				</port>
			</output>
		</layer>
		<layer id="141" name="__module.model.layers.0.self_attn/aten::mul/Multiply_2" type="Multiply" version="opset1">
			<data auto_broadcast="numpy" />
			<input>
				<port id="0" precision="FP32">
					<dim>-1</dim>
					<dim>2</dim>
					<dim>-1</dim>
					<dim>128</dim>
				</port>
				<port id="1" precision="FP32">
					<dim>-1</dim>
					<dim>1</dim>
					<dim>-1</dim>
					<dim>128</dim>
				</port>
			</input>
			<output>
				<port id="2" precision="FP32" names="414">
					<dim>-1</dim>
					<dim>2</dim>
					<dim>-1</dim>
					<dim>128</dim>
				</port>
			</output>
		</layer>
		<layer id="142" name="Constant_208191" type="Const" version="opset1">
			<data element_type="i64" shape="4" offset="251851000" size="32" />
			<output>
				<port id="0" precision="I64">
					<dim>4</dim>
				</port>
			</output>
		</layer>
		<layer id="143" name="Constant_208190" type="Const" version="opset1">
			<data element_type="i64" shape="1" offset="251851032" size="8" />
			<output>
				<port id="0" precision="I64">
					<dim>1</dim>
				</port>
			</output>
		</layer>
		<layer id="144" name="__module.model.layers.0.self_attn/aten::size/ShapeOf_2" type="ShapeOf" version="opset3">
			<data output_type="i64" />
			<input>
				<port id="0" precision="FP32">
					<dim>-1</dim>
					<dim>2</dim>
					<dim>-1</dim>
					<dim>128</dim>
				</port>
			</input>
			<output>
				<port id="1" precision="I64">
					<dim>4</dim>
				</port>
			</output>
		</layer>
		<layer id="145" name="__module.model.layers.0.self_attn/aten::size/Constant_7" type="Const" version="opset1">
			<data element_type="i32" shape="" offset="0" size="4" />
			<output>
				<port id="0" precision="I32" />
			</output>
		</layer>
		<layer id="146" name="__module.model.layers.0.self_attn/aten::size/Gather_7" type="Gather" version="opset8">
			<data batch_dims="0" />
			<input>
				<port id="0" precision="I64">
					<dim>4</dim>
				</port>
				<port id="1" precision="I64" />
				<port id="2" precision="I32" />
			</input>
			<output>
				<port id="3" precision="I64" names="415,420" />
			</output>
		</layer>
		<layer id="147" name="__module.model.layers.0.self_attn/aten::floor_divide/Divide_3" type="Divide" version="opset1">
			<data auto_broadcast="numpy" m_pythondiv="true" />
			<input>
				<port id="0" precision="I64" />
				<port id="1" precision="I64" />
			</input>
			<output>
				<port id="2" precision="I64" />
			</output>
		</layer>
		<layer id="148" name="__module.model.layers.0.self_attn/aten::floor_divide/Floor_3" type="Floor" version="opset1">
			<input>
				<port id="0" precision="I64" />
			</input>
			<output>
				<port id="1" precision="I64" names="417,418,422,423" />
			</output>
		</layer>
		<layer id="149" name="Constant_237326" type="Const" version="opset1">
			<data element_type="i64" shape="1" offset="251850992" size="8" />
			<output>
				<port id="0" precision="I64">
					<dim>1</dim>
				</port>
			</output>
		</layer>
		<layer id="150" name="__module.model.layers.0.self_attn/aten::slice/Unsqueeze_13" type="Reshape" version="opset1">
			<data special_zero="false" />
			<input>
				<port id="0" precision="I64" />
				<port id="1" precision="I64">
					<dim>1</dim>
				</port>
			</input>
			<output>
				<port id="2" precision="I64">
					<dim>1</dim>
				</port>
			</output>
		</layer>
		<layer id="151" name="Constant_208189" type="Const" version="opset1">
			<data element_type="i32" shape="1" offset="0" size="4" />
			<output>
				<port id="0" precision="I32">
					<dim>1</dim>
				</port>
			</output>
		</layer>
		<layer id="152" name="ScatterUpdate_208192" type="ScatterUpdate" version="opset3">
			<input>
				<port id="0" precision="I64">
					<dim>4</dim>
				</port>
				<port id="1" precision="I64">
					<dim>1</dim>
				</port>
				<port id="2" precision="I64">
					<dim>1</dim>
				</port>
				<port id="3" precision="I32">
					<dim>1</dim>
				</port>
			</input>
			<output>
				<port id="4" precision="I64">
					<dim>4</dim>
				</port>
			</output>
		</layer>
		<layer id="153" name="Constant_208195" type="Const" version="opset1">
			<data element_type="i64" shape="4" offset="251851040" size="32" />
			<output>
				<port id="0" precision="I64">
					<dim>4</dim>
				</port>
			</output>
		</layer>
		<layer id="154" name="Constant_208198" type="Const" version="opset1">
			<data element_type="i64" shape="4" offset="251851072" size="32" />
			<output>
				<port id="0" precision="I64">
					<dim>4</dim>
				</port>
			</output>
		</layer>
		<layer id="155" name="__module.model.layers.0.self_attn/aten::slice/Slice_2" type="StridedSlice" version="opset1">
			<data begin_mask="1, 1, 1, 0" end_mask="1, 1, 1, 0" new_axis_mask="" shrink_axis_mask="" ellipsis_mask="" />
			<input>
				<port id="0" precision="FP32">
					<dim>-1</dim>
					<dim>2</dim>
					<dim>-1</dim>
					<dim>128</dim>
				</port>
				<port id="1" precision="I64">
					<dim>4</dim>
				</port>
				<port id="2" precision="I64">
					<dim>4</dim>
				</port>
				<port id="3" precision="I64">
					<dim>4</dim>
				</port>
			</input>
			<output>
				<port id="4" precision="FP32" names="424,x2.3">
					<dim>-1</dim>
					<dim>2</dim>
					<dim>-1</dim>
					<dim>64</dim>
				</port>
			</output>
		</layer>
		<layer id="156" name="Constant_229721" type="Const" version="opset1">
			<data element_type="f32" shape="1, 1, 1, 1" offset="251851104" size="4" />
			<output>
				<port id="0" precision="FP32">
					<dim>1</dim>
					<dim>1</dim>
					<dim>1</dim>
					<dim>1</dim>
				</port>
			</output>
		</layer>
		<layer id="157" name="__module.model.layers.0.self_attn/aten::neg/Multiply_1" type="Multiply" version="opset1">
			<data auto_broadcast="numpy" />
			<input>
				<port id="0" precision="FP32">
					<dim>-1</dim>
					<dim>2</dim>
					<dim>-1</dim>
					<dim>64</dim>
				</port>
				<port id="1" precision="FP32">
					<dim>1</dim>
					<dim>1</dim>
					<dim>1</dim>
					<dim>1</dim>
				</port>
			</input>
			<output>
				<port id="2" precision="FP32" names="425">
					<dim>-1</dim>
					<dim>2</dim>
					<dim>-1</dim>
					<dim>64</dim>
				</port>
			</output>
		</layer>
		<layer id="158" name="Constant_208243" type="Const" version="opset1">
			<data element_type="i64" shape="4" offset="251851000" size="32" />
			<output>
				<port id="0" precision="I64">
					<dim>4</dim>
				</port>
			</output>
		</layer>
		<layer id="159" name="Constant_208248" type="Const" version="opset1">
			<data element_type="i64" shape="4" offset="251851072" size="32" />
			<output>
				<port id="0" precision="I64">
					<dim>4</dim>
				</port>
			</output>
		</layer>
		<layer id="160" name="__module.model.layers.0.self_attn/aten::slice/Slice_3" type="StridedSlice" version="opset1">
			<data begin_mask="1, 1, 1, 0" end_mask="1, 1, 1, 0" new_axis_mask="" shrink_axis_mask="" ellipsis_mask="" />
			<input>
				<port id="0" precision="FP32">
					<dim>-1</dim>
					<dim>2</dim>
					<dim>-1</dim>
					<dim>128</dim>
				</port>
				<port id="1" precision="I64">
					<dim>4</dim>
				</port>
				<port id="2" precision="I64">
					<dim>4</dim>
				</port>
				<port id="3" precision="I64">
					<dim>4</dim>
				</port>
			</input>
			<output>
				<port id="4" precision="FP32" names="419">
					<dim>-1</dim>
					<dim>2</dim>
					<dim>-1</dim>
					<dim>64</dim>
				</port>
			</output>
		</layer>
		<layer id="161" name="__module.model.layers.0.self_attn/aten::cat/Concat_1" type="Concat" version="opset1">
			<data axis="-1" />
			<input>
				<port id="0" precision="FP32">
					<dim>-1</dim>
					<dim>2</dim>
					<dim>-1</dim>
					<dim>64</dim>
				</port>
				<port id="1" precision="FP32">
					<dim>-1</dim>
					<dim>2</dim>
					<dim>-1</dim>
					<dim>64</dim>
				</port>
			</input>
			<output>
				<port id="2" precision="FP32" names="427">
					<dim>-1</dim>
					<dim>2</dim>
					<dim>-1</dim>
					<dim>128</dim>
				</port>
			</output>
		</layer>
		<layer id="162" name="__module.model.layers.0.self_attn/aten::mul/Multiply_3" type="Multiply" version="opset1">
			<data auto_broadcast="numpy" />
			<input>
				<port id="0" precision="FP32">
					<dim>-1</dim>
					<dim>2</dim>
					<dim>-1</dim>
					<dim>128</dim>
				</port>
				<port id="1" precision="FP32">
					<dim>-1</dim>
					<dim>1</dim>
					<dim>-1</dim>
					<dim>128</dim>
				</port>
			</input>
			<output>
				<port id="2" precision="FP32" names="428">
					<dim>-1</dim>
					<dim>2</dim>
					<dim>-1</dim>
					<dim>128</dim>
				</port>
			</output>
		</layer>
		<layer id="163" name="__module.model.layers.0.self_attn/aten::add/Add_1" type="Add" version="opset1">
			<data auto_broadcast="numpy" />
			<input>
				<port id="0" precision="FP32">
					<dim>-1</dim>
					<dim>2</dim>
					<dim>-1</dim>
					<dim>128</dim>
				</port>
				<port id="1" precision="FP32">
					<dim>-1</dim>
					<dim>2</dim>
					<dim>-1</dim>
					<dim>128</dim>
				</port>
			</input>
			<output>
				<port id="2" precision="FP32" names="429,key_states.7">
					<dim>-1</dim>
					<dim>2</dim>
					<dim>-1</dim>
					<dim>128</dim>
				</port>
			</output>
		</layer>
		<layer id="164" name="__module.model.layers.0.self_attn/aten::cat/Concat_2" type="Concat" version="opset1">
			<data axis="-2" />
			<input>
				<port id="0" precision="FP32">
					<dim>-1</dim>
					<dim>2</dim>
					<dim>-1</dim>
					<dim>128</dim>
				</port>
				<port id="1" precision="FP32">
					<dim>-1</dim>
					<dim>2</dim>
					<dim>-1</dim>
					<dim>128</dim>
				</port>
			</input>
			<output>
				<port id="2" precision="FP32" names="present.0.key">
					<dim>-1</dim>
					<dim>2</dim>
					<dim>-1</dim>
					<dim>128</dim>
				</port>
			</output>
		</layer>
		<layer id="165" name="212" type="Const" version="opset1">
			<data element_type="i64" shape="" offset="12" size="8" />
			<output>
				<port id="0" precision="I64" names="212" />
			</output>
		</layer>
		<layer id="166" name="__module.model.layers.0.self_attn/aten::unsqueeze/Unsqueeze_2" type="Unsqueeze" version="opset1">
			<input>
				<port id="0" precision="FP32">
					<dim>-1</dim>
					<dim>2</dim>
					<dim>-1</dim>
					<dim>128</dim>
				</port>
				<port id="1" precision="I64" />
			</input>
			<output>
				<port id="2" precision="FP32" names="444,445,446">
					<dim>-1</dim>
					<dim>2</dim>
					<dim>1</dim>
					<dim>-1</dim>
					<dim>128</dim>
				</port>
			</output>
		</layer>
		<layer id="167" name="Constant_237682" type="Const" version="opset1">
			<data element_type="i64" shape="1" offset="4" size="8" />
			<output>
				<port id="0" precision="I64">
					<dim>1</dim>
				</port>
			</output>
		</layer>
		<layer id="168" name="Constant_237683" type="Const" version="opset1">
			<data element_type="i64" shape="" offset="4" size="8" />
			<output>
				<port id="0" precision="I64" />
			</output>
		</layer>
		<layer id="169" name="Gather_237684" type="Gather" version="opset8">
			<data batch_dims="0" />
			<input>
				<port id="0" precision="I64">
					<dim>4</dim>
				</port>
				<port id="1" precision="I64">
					<dim>1</dim>
				</port>
				<port id="2" precision="I64" />
			</input>
			<output>
				<port id="3" precision="I64" names="437">
					<dim>1</dim>
				</port>
			</output>
		</layer>
		<layer id="170" name="__module.model.layers.0.self_attn/aten::size/ShapeOf_8" type="ShapeOf" version="opset3">
			<data output_type="i64" />
			<input>
				<port id="0" precision="FP32">
					<dim>-1</dim>
					<dim>2</dim>
					<dim>-1</dim>
					<dim>128</dim>
				</port>
			</input>
			<output>
				<port id="1" precision="I64">
					<dim>4</dim>
				</port>
			</output>
		</layer>
		<layer id="171" name="Constant_238992" type="Const" version="opset1">
			<data element_type="i64" shape="1" offset="251850992" size="8" />
			<output>
				<port id="0" precision="I64">
					<dim>1</dim>
				</port>
			</output>
		</layer>
		<layer id="172" name="__module.model.layers.0.self_attn/aten::size/Constant_9" type="Const" version="opset1">
			<data element_type="i32" shape="" offset="0" size="4" />
			<output>
				<port id="0" precision="I32" />
			</output>
		</layer>
		<layer id="173" name="__module.model.layers.0.self_attn/aten::size/Gather_9" type="Gather" version="opset8">
			<data batch_dims="0" />
			<input>
				<port id="0" precision="I64">
					<dim>4</dim>
				</port>
				<port id="1" precision="I64">
					<dim>1</dim>
				</port>
				<port id="2" precision="I32" />
			</input>
			<output>
				<port id="3" precision="I64" names="438">
					<dim>1</dim>
				</port>
			</output>
		</layer>
		<layer id="174" name="Constant_192081" type="Const" version="opset1">
			<data element_type="i64" shape="1" offset="268833684" size="8" />
			<output>
				<port id="0" precision="I64">
					<dim>1</dim>
				</port>
			</output>
		</layer>
		<layer id="175" name="Constant_201858" type="Const" version="opset1">
			<data element_type="i64" shape="2" offset="268833692" size="16" />
			<output>
				<port id="0" precision="I64">
					<dim>2</dim>
				</port>
			</output>
		</layer>
		<layer id="176" name="Constant_201859" type="Const" version="opset1">
			<data element_type="i64" shape="" offset="4" size="8" />
			<output>
				<port id="0" precision="I64" />
			</output>
		</layer>
		<layer id="177" name="Gather_201860" type="Gather" version="opset8">
			<data batch_dims="0" />
			<input>
				<port id="0" precision="I64">
					<dim>4</dim>
				</port>
				<port id="1" precision="I64">
					<dim>2</dim>
				</port>
				<port id="2" precision="I64" />
			</input>
			<output>
				<port id="3" precision="I64">
					<dim>2</dim>
				</port>
			</output>
		</layer>
		<layer id="178" name="__module.model.layers.0.self_attn/prim::ListConstruct/Concat_2" type="Concat" version="opset1">
			<data axis="0" />
			<input>
				<port id="0" precision="I64">
					<dim>1</dim>
				</port>
				<port id="1" precision="I64">
					<dim>1</dim>
				</port>
				<port id="2" precision="I64">
					<dim>1</dim>
				</port>
				<port id="3" precision="I64">
					<dim>2</dim>
				</port>
			</input>
			<output>
				<port id="4" precision="I64" names="447">
					<dim>5</dim>
				</port>
			</output>
		</layer>
		<layer id="179" name="__module.model.layers.0.self_attn/aten::expand/Broadcast" type="Broadcast" version="opset3">
			<data mode="bidirectional" />
			<input>
				<port id="0" precision="FP32">
					<dim>-1</dim>
					<dim>2</dim>
					<dim>1</dim>
					<dim>-1</dim>
					<dim>128</dim>
				</port>
				<port id="1" precision="I64">
					<dim>5</dim>
				</port>
			</input>
			<output>
				<port id="2" precision="FP32" names="448,hidden_states.13">
					<dim>-1</dim>
					<dim>2</dim>
					<dim>6</dim>
					<dim>-1</dim>
					<dim>128</dim>
				</port>
			</output>
		</layer>
		<layer id="180" name="Constant_238688" type="Const" version="opset1">
			<data element_type="i64" shape="4" offset="268833708" size="32" />
			<output>
				<port id="0" precision="I64">
					<dim>4</dim>
				</port>
			</output>
		</layer>
		<layer id="181" name="__module.model.layers.0.self_attn/aten::reshape/Reshape" type="Reshape" version="opset1">
			<data special_zero="true" />
			<input>
				<port id="0" precision="FP32">
					<dim>-1</dim>
					<dim>2</dim>
					<dim>6</dim>
					<dim>-1</dim>
					<dim>128</dim>
				</port>
				<port id="1" precision="I64">
					<dim>4</dim>
				</port>
			</input>
			<output>
				<port id="2" precision="FP32" names="452">
					<dim>-1</dim>
					<dim>12</dim>
					<dim>-1</dim>
					<dim>128</dim>
				</port>
			</output>
		</layer>
		<layer id="182" name="Constant_271101" type="Const" version="opset1">
			<data element_type="f32" shape="" offset="0" size="4" />
			<output>
				<port id="0" precision="FP32" />
			</output>
		</layer>
		<layer id="183" name="Constant_271094" type="Const" version="opset1">
			<data element_type="i64" shape="1" offset="12" size="8" />
			<output>
				<port id="0" precision="I64">
					<dim>1</dim>
				</port>
			</output>
		</layer>
		<layer id="184" name="Constant_271096" type="Const" version="opset1">
			<data element_type="i64" shape="1" offset="4" size="8" />
			<output>
				<port id="0" precision="I64">
					<dim>1</dim>
				</port>
			</output>
		</layer>
		<layer id="185" name="Constant_271098" type="Const" version="opset1">
			<data element_type="i64" shape="1" offset="20" size="8" />
			<output>
				<port id="0" precision="I64">
					<dim>1</dim>
				</port>
			</output>
		</layer>
		<layer id="186" name="Concat_271099" type="Concat" version="opset1">
			<data axis="0" />
			<input>
				<port id="0" precision="I64">
					<dim>1</dim>
				</port>
				<port id="1" precision="I64">
					<dim>1</dim>
				</port>
				<port id="2" precision="I64">
					<dim>1</dim>
				</port>
				<port id="3" precision="I64">
					<dim>1</dim>
				</port>
			</input>
			<output>
				<port id="4" precision="I64">
					<dim>4</dim>
				</port>
			</output>
		</layer>
		<layer id="187" name="Broadcast_271102" type="Broadcast" version="opset3">
			<data mode="numpy" />
			<input>
				<port id="0" precision="FP32" />
				<port id="1" precision="I64">
					<dim>4</dim>
				</port>
			</input>
			<output>
				<port id="2" precision="FP32">
					<dim>-1</dim>
					<dim>2</dim>
					<dim>0</dim>
					<dim>128</dim>
				</port>
			</output>
		</layer>
		<layer id="188" name="ReadValue_265697" type="ReadValue" version="opset6">
			<data variable_id="past_key_values.0.valuepresent.0.value" variable_type="f32" variable_shape="?,2,?,128" />
			<input>
				<port id="0" precision="FP32">
					<dim>-1</dim>
					<dim>2</dim>
					<dim>0</dim>
					<dim>128</dim>
				</port>
			</input>
			<output>
				<port id="1" precision="FP32" names="past_key_values.0.value">
					<dim>-1</dim>
					<dim>2</dim>
					<dim>-1</dim>
					<dim>128</dim>
				</port>
			</output>
		</layer>
		<layer id="189" name="Constant_260277" type="Const" version="opset1">
			<data element_type="i64" shape="" offset="4" size="8" />
			<output>
				<port id="0" precision="I64" />
			</output>
		</layer>
		<layer id="190" name="Gather_260278" type="Gather" version="opset8">
			<data batch_dims="0" />
			<input>
				<port id="0" precision="FP32">
					<dim>-1</dim>
					<dim>2</dim>
					<dim>-1</dim>
					<dim>128</dim>
				</port>
				<port id="1" precision="I32">
					<dim>-1</dim>
				</port>
				<port id="2" precision="I64" />
			</input>
			<output>
				<port id="3" precision="FP32">
					<dim>-1</dim>
					<dim>2</dim>
					<dim>-1</dim>
					<dim>128</dim>
				</port>
			</output>
		</layer>
		<layer id="191" name="self.model.layers.0.self_attn.v_proj.weight" type="Const" version="opset1">
			<data element_type="u8" shape="256, 1536" offset="268833740" size="393216" />
			<output>
				<port id="0" precision="U8">
					<dim>256</dim>
					<dim>1536</dim>
				</port>
			</output>
		</layer>
		<layer id="192" name="Convert_277230" type="Convert" version="opset1">
			<data destination_type="f16" />
			<input>
				<port id="0" precision="U8">
					<dim>256</dim>
					<dim>1536</dim>
				</port>
			</input>
			<output>
				<port id="1" precision="FP16">
					<dim>256</dim>
					<dim>1536</dim>
				</port>
			</output>
		</layer>
		<layer id="193" name="self.model.layers.0.self_attn.v_proj.weight/zero_point" type="Const" version="opset1">
			<data element_type="u8" shape="256, 1" offset="269226956" size="256" />
			<output>
				<port id="0" precision="U8">
					<dim>256</dim>
					<dim>1</dim>
				</port>
			</output>
		</layer>
		<layer id="194" name="Convert_277233" type="Convert" version="opset1">
			<data destination_type="f16" />
			<input>
				<port id="0" precision="U8">
					<dim>256</dim>
					<dim>1</dim>
				</port>
			</input>
			<output>
				<port id="1" precision="FP16">
					<dim>256</dim>
					<dim>1</dim>
				</port>
			</output>
		</layer>
		<layer id="195" name="self.model.layers.0.self_attn.v_proj.weight/zero_point/subtract" type="Subtract" version="opset1">
			<data auto_broadcast="numpy" />
			<input>
				<port id="0" precision="FP16">
					<dim>256</dim>
					<dim>1536</dim>
				</port>
				<port id="1" precision="FP16">
					<dim>256</dim>
					<dim>1</dim>
				</port>
			</input>
			<output>
				<port id="2" precision="FP16">
					<dim>256</dim>
					<dim>1536</dim>
				</port>
			</output>
		</layer>
		<layer id="196" name="self.model.layers.0.self_attn.v_proj.weight/scale" type="Const" version="opset1">
			<data element_type="f16" shape="256, 1" offset="269227212" size="512" />
			<output>
				<port id="0" precision="FP16">
					<dim>256</dim>
					<dim>1</dim>
				</port>
			</output>
		</layer>
		<layer id="197" name="self.model.layers.0.self_attn.v_proj.weight/fq_weights_1" type="Multiply" version="opset1">
			<data auto_broadcast="numpy" />
			<input>
				<port id="0" precision="FP16">
					<dim>256</dim>
					<dim>1536</dim>
				</port>
				<port id="1" precision="FP16">
					<dim>256</dim>
					<dim>1</dim>
				</port>
			</input>
			<output>
				<port id="2" precision="FP16">
					<dim>256</dim>
					<dim>1536</dim>
				</port>
			</output>
		</layer>
		<layer id="198" name="self.model.layers.0.self_attn.v_proj.weight/fq_weights_1/convert" type="Convert" version="opset1">
			<data destination_type="f32" />
			<input>
				<port id="0" precision="FP16">
					<dim>256</dim>
					<dim>1536</dim>
				</port>
			</input>
			<output>
				<port id="1" precision="FP32">
					<dim>256</dim>
					<dim>1536</dim>
				</port>
			</output>
		</layer>
		<layer id="199" name="__module.model.layers.0.self_attn.v_proj/aten::linear/MatMul" type="MatMul" version="opset1">
			<data transpose_a="false" transpose_b="true" />
			<input>
				<port id="0" precision="FP32">
					<dim>-1</dim>
					<dim>-1</dim>
					<dim>1536</dim>
				</port>
				<port id="1" precision="FP32">
					<dim>256</dim>
					<dim>1536</dim>
				</port>
			</input>
			<output>
				<port id="2" precision="FP32">
					<dim>-1</dim>
					<dim>-1</dim>
					<dim>256</dim>
				</port>
			</output>
		</layer>
		<layer id="200" name="Constant_229722" type="Const" version="opset1">
			<data element_type="f32" shape="1, 1, 256" offset="269227724" size="1024" />
			<output>
				<port id="0" precision="FP32">
					<dim>1</dim>
					<dim>1</dim>
					<dim>256</dim>
				</port>
			</output>
		</layer>
		<layer id="201" name="__module.model.layers.0.self_attn.v_proj/aten::linear/Add" type="Add" version="opset1">
			<data auto_broadcast="numpy" />
			<input>
				<port id="0" precision="FP32">
					<dim>-1</dim>
					<dim>-1</dim>
					<dim>256</dim>
				</port>
				<port id="1" precision="FP32">
					<dim>1</dim>
					<dim>1</dim>
					<dim>256</dim>
				</port>
			</input>
			<output>
				<port id="2" precision="FP32" names="366,value_states.1">
					<dim>-1</dim>
					<dim>-1</dim>
					<dim>256</dim>
				</port>
			</output>
		</layer>
		<layer id="202" name="Constant_238689" type="Const" version="opset1">
			<data element_type="i64" shape="4" offset="268833652" size="32" />
			<output>
				<port id="0" precision="I64">
					<dim>4</dim>
				</port>
			</output>
		</layer>
		<layer id="203" name="__module.model.layers.0.self_attn/aten::view/Reshape_2" type="Reshape" version="opset1">
			<data special_zero="true" />
			<input>
				<port id="0" precision="FP32">
					<dim>-1</dim>
					<dim>-1</dim>
					<dim>256</dim>
				</port>
				<port id="1" precision="I64">
					<dim>4</dim>
				</port>
			</input>
			<output>
				<port id="2" precision="FP32" names="374">
					<dim>-1</dim>
					<dim>-1</dim>
					<dim>2</dim>
					<dim>128</dim>
				</port>
			</output>
		</layer>
		<layer id="204" name="__module.model.layers.0.self_attn/aten::transpose/ScatterElementsUpdate_2" type="Const" version="opset1">
			<data element_type="i32" shape="4" offset="235073760" size="16" />
			<output>
				<port id="0" precision="I32">
					<dim>4</dim>
				</port>
			</output>
		</layer>
		<layer id="205" name="__module.model.layers.0.self_attn/aten::transpose/Transpose_2" type="Transpose" version="opset1">
			<input>
				<port id="0" precision="FP32">
					<dim>-1</dim>
					<dim>-1</dim>
					<dim>2</dim>
					<dim>128</dim>
				</port>
				<port id="1" precision="I32">
					<dim>4</dim>
				</port>
			</input>
			<output>
				<port id="2" precision="FP32" names="375">
					<dim>-1</dim>
					<dim>2</dim>
					<dim>-1</dim>
					<dim>128</dim>
				</port>
			</output>
		</layer>
		<layer id="206" name="__module.model.layers.0.self_attn/aten::cat/Concat_3" type="Concat" version="opset1">
			<data axis="-2" />
			<input>
				<port id="0" precision="FP32">
					<dim>-1</dim>
					<dim>2</dim>
					<dim>-1</dim>
					<dim>128</dim>
				</port>
				<port id="1" precision="FP32">
					<dim>-1</dim>
					<dim>2</dim>
					<dim>-1</dim>
					<dim>128</dim>
				</port>
			</input>
			<output>
				<port id="2" precision="FP32" names="present.0.value">
					<dim>-1</dim>
					<dim>2</dim>
					<dim>-1</dim>
					<dim>128</dim>
				</port>
			</output>
		</layer>
		<layer id="207" name="__module.model.layers.0.self_attn/aten::unsqueeze/Unsqueeze_3" type="Unsqueeze" version="opset1">
			<input>
				<port id="0" precision="FP32">
					<dim>-1</dim>
					<dim>2</dim>
					<dim>-1</dim>
					<dim>128</dim>
				</port>
				<port id="1" precision="I64" />
			</input>
			<output>
				<port id="2" precision="FP32" names="460,461,462">
					<dim>-1</dim>
					<dim>2</dim>
					<dim>1</dim>
					<dim>-1</dim>
					<dim>128</dim>
				</port>
			</output>
		</layer>
		<layer id="208" name="Constant_271114" type="Const" version="opset1">
			<data element_type="f32" shape="" offset="0" size="4" />
			<output>
				<port id="0" precision="FP32" />
			</output>
		</layer>
		<layer id="209" name="Constant_271107" type="Const" version="opset1">
			<data element_type="i64" shape="1" offset="12" size="8" />
			<output>
				<port id="0" precision="I64">
					<dim>1</dim>
				</port>
			</output>
		</layer>
		<layer id="210" name="Constant_271109" type="Const" version="opset1">
			<data element_type="i64" shape="1" offset="4" size="8" />
			<output>
				<port id="0" precision="I64">
					<dim>1</dim>
				</port>
			</output>
		</layer>
		<layer id="211" name="Constant_271111" type="Const" version="opset1">
			<data element_type="i64" shape="1" offset="20" size="8" />
			<output>
				<port id="0" precision="I64">
					<dim>1</dim>
				</port>
			</output>
		</layer>
		<layer id="212" name="Concat_271112" type="Concat" version="opset1">
			<data axis="0" />
			<input>
				<port id="0" precision="I64">
					<dim>1</dim>
				</port>
				<port id="1" precision="I64">
					<dim>1</dim>
				</port>
				<port id="2" precision="I64">
					<dim>1</dim>
				</port>
				<port id="3" precision="I64">
					<dim>1</dim>
				</port>
			</input>
			<output>
				<port id="4" precision="I64">
					<dim>4</dim>
				</port>
			</output>
		</layer>
		<layer id="213" name="Broadcast_271115" type="Broadcast" version="opset3">
			<data mode="numpy" />
			<input>
				<port id="0" precision="FP32" />
				<port id="1" precision="I64">
					<dim>4</dim>
				</port>
			</input>
			<output>
				<port id="2" precision="FP32">
					<dim>-1</dim>
					<dim>2</dim>
					<dim>0</dim>
					<dim>128</dim>
				</port>
			</output>
		</layer>
		<layer id="214" name="ReadValue_265777" type="ReadValue" version="opset6">
			<data variable_id="past_key_values.27.valuepresent.27.value" variable_type="f32" variable_shape="?,2,?,128" />
			<input>
				<port id="0" precision="FP32">
					<dim>-1</dim>
					<dim>2</dim>
					<dim>0</dim>
					<dim>128</dim>
				</port>
			</input>
			<output>
				<port id="1" precision="FP32" names="past_key_values.27.value">
					<dim>-1</dim>
					<dim>2</dim>
					<dim>-1</dim>
					<dim>128</dim>
				</port>
			</output>
		</layer>
		<layer id="215" name="Constant_260439" type="Const" version="opset1">
			<data element_type="i64" shape="" offset="4" size="8" />
			<output>
				<port id="0" precision="I64" />
			</output>
		</layer>
		<layer id="216" name="Gather_260440" type="Gather" version="opset8">
			<data batch_dims="0" />
			<input>
				<port id="0" precision="FP32">
					<dim>-1</dim>
					<dim>2</dim>
					<dim>-1</dim>
					<dim>128</dim>
				</port>
				<port id="1" precision="I32">
					<dim>-1</dim>
				</port>
				<port id="2" precision="I64" />
			</input>
			<output>
				<port id="3" precision="FP32">
					<dim>-1</dim>
					<dim>2</dim>
					<dim>-1</dim>
					<dim>128</dim>
				</port>
			</output>
		</layer>
		<layer id="217" name="ShapeOf_237689" type="ShapeOf" version="opset3">
			<data output_type="i64" />
			<input>
				<port id="0" precision="FP32">
					<dim>-1</dim>
					<dim>2</dim>
					<dim>-1</dim>
					<dim>128</dim>
				</port>
			</input>
			<output>
				<port id="1" precision="I64">
					<dim>4</dim>
				</port>
			</output>
		</layer>
		<layer id="218" name="Constant_237690" type="Const" version="opset1">
			<data element_type="i64" shape="1" offset="4" size="8" />
			<output>
				<port id="0" precision="I64">
					<dim>1</dim>
				</port>
			</output>
		</layer>
		<layer id="219" name="Constant_237691" type="Const" version="opset1">
			<data element_type="i64" shape="" offset="4" size="8" />
			<output>
				<port id="0" precision="I64" />
			</output>
		</layer>
		<layer id="220" name="Gather_237692" type="Gather" version="opset8">
			<data batch_dims="0" />
			<input>
				<port id="0" precision="I64">
					<dim>4</dim>
				</port>
				<port id="1" precision="I64">
					<dim>1</dim>
				</port>
				<port id="2" precision="I64" />
			</input>
			<output>
				<port id="3" precision="I64" names="1145,1318,1491,1664,1837,2010,2183,2356,2529,2702,2875,3048,3221,3394,3567,3740,3913,4086,4259,4432,453,4605,4778,4951,5124,626,799,972">
					<dim>1</dim>
				</port>
			</output>
		</layer>
		<layer id="221" name="__module.model.layers.0.self_attn/aten::size/ShapeOf_12" type="ShapeOf" version="opset3">
			<data output_type="i64" />
			<input>
				<port id="0" precision="FP32">
					<dim>-1</dim>
					<dim>2</dim>
					<dim>-1</dim>
					<dim>128</dim>
				</port>
			</input>
			<output>
				<port id="1" precision="I64">
					<dim>4</dim>
				</port>
			</output>
		</layer>
		<layer id="222" name="Constant_238995" type="Const" version="opset1">
			<data element_type="i64" shape="1" offset="251850992" size="8" />
			<output>
				<port id="0" precision="I64">
					<dim>1</dim>
				</port>
			</output>
		</layer>
		<layer id="223" name="__module.model.layers.0.self_attn/aten::size/Constant_13" type="Const" version="opset1">
			<data element_type="i32" shape="" offset="0" size="4" />
			<output>
				<port id="0" precision="I32" />
			</output>
		</layer>
		<layer id="224" name="__module.model.layers.0.self_attn/aten::size/Gather_13" type="Gather" version="opset8">
			<data batch_dims="0" />
			<input>
				<port id="0" precision="I64">
					<dim>4</dim>
				</port>
				<port id="1" precision="I64">
					<dim>1</dim>
				</port>
				<port id="2" precision="I32" />
			</input>
			<output>
				<port id="3" precision="I64" names="454">
					<dim>1</dim>
				</port>
			</output>
		</layer>
		<layer id="225" name="Constant_192099" type="Const" version="opset1">
			<data element_type="i64" shape="1" offset="268833684" size="8" />
			<output>
				<port id="0" precision="I64">
					<dim>1</dim>
				</port>
			</output>
		</layer>
		<layer id="226" name="Constant_201868" type="Const" version="opset1">
			<data element_type="i64" shape="2" offset="268833692" size="16" />
			<output>
				<port id="0" precision="I64">
					<dim>2</dim>
				</port>
			</output>
		</layer>
		<layer id="227" name="Constant_201869" type="Const" version="opset1">
			<data element_type="i64" shape="" offset="4" size="8" />
			<output>
				<port id="0" precision="I64" />
			</output>
		</layer>
		<layer id="228" name="Gather_201870" type="Gather" version="opset8">
			<data batch_dims="0" />
			<input>
				<port id="0" precision="I64">
					<dim>4</dim>
				</port>
				<port id="1" precision="I64">
					<dim>2</dim>
				</port>
				<port id="2" precision="I64" />
			</input>
			<output>
				<port id="3" precision="I64">
					<dim>2</dim>
				</port>
			</output>
		</layer>
		<layer id="229" name="__module.model.layers.0.self_attn/prim::ListConstruct/Concat_5" type="Concat" version="opset1">
			<data axis="0" />
			<input>
				<port id="0" precision="I64">
					<dim>1</dim>
				</port>
				<port id="1" precision="I64">
					<dim>1</dim>
				</port>
				<port id="2" precision="I64">
					<dim>1</dim>
				</port>
				<port id="3" precision="I64">
					<dim>2</dim>
				</port>
			</input>
			<output>
				<port id="4" precision="I64" names="463">
					<dim>5</dim>
				</port>
			</output>
		</layer>
		<layer id="230" name="__module.model.layers.0.self_attn/aten::expand/Broadcast_1" type="Broadcast" version="opset3">
			<data mode="bidirectional" />
			<input>
				<port id="0" precision="FP32">
					<dim>-1</dim>
					<dim>2</dim>
					<dim>1</dim>
					<dim>-1</dim>
					<dim>128</dim>
				</port>
				<port id="1" precision="I64">
					<dim>5</dim>
				</port>
			</input>
			<output>
				<port id="2" precision="FP32" names="464,hidden_states.17">
					<dim>-1</dim>
					<dim>2</dim>
					<dim>6</dim>
					<dim>-1</dim>
					<dim>128</dim>
				</port>
			</output>
		</layer>
		<layer id="231" name="Constant_238690" type="Const" version="opset1">
			<data element_type="i64" shape="4" offset="268833708" size="32" />
			<output>
				<port id="0" precision="I64">
					<dim>4</dim>
				</port>
			</output>
		</layer>
		<layer id="232" name="__module.model.layers.0.self_attn/aten::reshape/Reshape_1" type="Reshape" version="opset1">
			<data special_zero="true" />
			<input>
				<port id="0" precision="FP32">
					<dim>-1</dim>
					<dim>2</dim>
					<dim>6</dim>
					<dim>-1</dim>
					<dim>128</dim>
				</port>
				<port id="1" precision="I64">
					<dim>4</dim>
				</port>
			</input>
			<output>
				<port id="2" precision="FP32" names="468">
					<dim>-1</dim>
					<dim>12</dim>
					<dim>-1</dim>
					<dim>128</dim>
				</port>
			</output>
		</layer>
		<layer id="233" name="Constant_229724" type="Const" version="opset1">
			<data element_type="f32" shape="1, 1, 1, 1" offset="233841820" size="4" />
			<output>
				<port id="0" precision="FP32">
					<dim>1</dim>
					<dim>1</dim>
					<dim>1</dim>
					<dim>1</dim>
				</port>
			</output>
		</layer>
		<layer id="234" name="Constant_237334" type="Const" version="opset1">
			<data element_type="i64" shape="2" offset="269228748" size="16" />
			<output>
				<port id="0" precision="I64">
					<dim>2</dim>
				</port>
			</output>
		</layer>
		<layer id="235" name="__module.model/aten::unsqueeze/Unsqueeze_1" type="Unsqueeze" version="opset1">
			<input>
				<port id="0" precision="I64">
					<dim>-1</dim>
					<dim>-1</dim>
				</port>
				<port id="1" precision="I64">
					<dim>2</dim>
				</port>
			</input>
			<output>
				<port id="2" precision="I64" names="323,324">
					<dim>-1</dim>
					<dim>1</dim>
					<dim>1</dim>
					<dim>-1</dim>
				</port>
			</output>
		</layer>
		<layer id="236" name="ShapeOf_237697" type="ShapeOf" version="opset3">
			<data output_type="i64" />
			<input>
				<port id="0" precision="I64">
					<dim>-1</dim>
					<dim>-1</dim>
				</port>
			</input>
			<output>
				<port id="1" precision="I64">
					<dim>2</dim>
				</port>
			</output>
		</layer>
		<layer id="237" name="Constant_237698" type="Const" version="opset1">
			<data element_type="i64" shape="1" offset="4" size="8" />
			<output>
				<port id="0" precision="I64">
					<dim>1</dim>
				</port>
			</output>
		</layer>
		<layer id="238" name="Constant_237699" type="Const" version="opset1">
			<data element_type="i64" shape="" offset="4" size="8" />
			<output>
				<port id="0" precision="I64" />
			</output>
		</layer>
		<layer id="239" name="Gather_237700" type="Gather" version="opset8">
			<data batch_dims="0" />
			<input>
				<port id="0" precision="I64">
					<dim>2</dim>
				</port>
				<port id="1" precision="I64">
					<dim>1</dim>
				</port>
				<port id="2" precision="I64" />
			</input>
			<output>
				<port id="3" precision="I64" names="285,319">
					<dim>1</dim>
				</port>
			</output>
		</layer>
		<layer id="240" name="Constant_192116" type="Const" version="opset1">
			<data element_type="i64" shape="1" offset="251850992" size="8" />
			<output>
				<port id="0" precision="I64">
					<dim>1</dim>
				</port>
			</output>
		</layer>
		<layer id="241" name="Constant_237703" type="Const" version="opset1">
			<data element_type="i64" shape="1" offset="251850992" size="8" />
			<output>
				<port id="0" precision="I64">
					<dim>1</dim>
				</port>
			</output>
		</layer>
		<layer id="242" name="Constant_237704" type="Const" version="opset1">
			<data element_type="i64" shape="" offset="4" size="8" />
			<output>
				<port id="0" precision="I64" />
			</output>
		</layer>
		<layer id="243" name="Gather_237705" type="Gather" version="opset8">
			<data batch_dims="0" />
			<input>
				<port id="0" precision="I64">
					<dim>2</dim>
				</port>
				<port id="1" precision="I64">
					<dim>1</dim>
				</port>
				<port id="2" precision="I64" />
			</input>
			<output>
				<port id="3" precision="I64" names="320">
					<dim>1</dim>
				</port>
			</output>
		</layer>
		<layer id="244" name="__module.model/prim::ListConstruct/Concat_1" type="Concat" version="opset1">
			<data axis="0" />
			<input>
				<port id="0" precision="I64">
					<dim>1</dim>
				</port>
				<port id="1" precision="I64">
					<dim>1</dim>
				</port>
				<port id="2" precision="I64">
					<dim>1</dim>
				</port>
				<port id="3" precision="I64">
					<dim>1</dim>
				</port>
			</input>
			<output>
				<port id="4" precision="I64" names="325">
					<dim>4</dim>
				</port>
			</output>
		</layer>
		<layer id="245" name="__module.model/aten::expand/Broadcast" type="Broadcast" version="opset3">
			<data mode="bidirectional" />
			<input>
				<port id="0" precision="I64">
					<dim>-1</dim>
					<dim>1</dim>
					<dim>1</dim>
					<dim>-1</dim>
				</port>
				<port id="1" precision="I64">
					<dim>4</dim>
				</port>
			</input>
			<output>
				<port id="2" precision="I64" names="326">
					<dim>-1</dim>
					<dim>1</dim>
					<dim>-1</dim>
					<dim>-1</dim>
				</port>
			</output>
		</layer>
		<layer id="246" name="__module.model/aten::to/Convert_1" type="Convert" version="opset1">
			<data destination_type="f32" />
			<input>
				<port id="0" precision="I64">
					<dim>-1</dim>
					<dim>1</dim>
					<dim>-1</dim>
					<dim>-1</dim>
				</port>
			</input>
			<output>
				<port id="1" precision="FP32" names="327">
					<dim>-1</dim>
					<dim>1</dim>
					<dim>-1</dim>
					<dim>-1</dim>
				</port>
			</output>
		</layer>
		<layer id="247" name="Constant_229723" type="Const" version="opset1">
			<data element_type="f32" shape="1, 1, 1, 1" offset="233841820" size="4" />
			<output>
				<port id="0" precision="FP32">
					<dim>1</dim>
					<dim>1</dim>
					<dim>1</dim>
					<dim>1</dim>
				</port>
			</output>
		</layer>
		<layer id="248" name="__module.model/aten::rsub/Multiply" type="Multiply" version="opset1">
			<data auto_broadcast="numpy" />
			<input>
				<port id="0" precision="FP32">
					<dim>-1</dim>
					<dim>1</dim>
					<dim>-1</dim>
					<dim>-1</dim>
				</port>
				<port id="1" precision="FP32">
					<dim>1</dim>
					<dim>1</dim>
					<dim>1</dim>
					<dim>1</dim>
				</port>
			</input>
			<output>
				<port id="2" precision="FP32">
					<dim>-1</dim>
					<dim>1</dim>
					<dim>-1</dim>
					<dim>-1</dim>
				</port>
			</output>
		</layer>
		<layer id="249" name="__module.model/aten::rsub/Subtract" type="Subtract" version="opset1">
			<data auto_broadcast="numpy" />
			<input>
				<port id="0" precision="FP32">
					<dim>1</dim>
					<dim>1</dim>
					<dim>1</dim>
					<dim>1</dim>
				</port>
				<port id="1" precision="FP32">
					<dim>-1</dim>
					<dim>1</dim>
					<dim>-1</dim>
					<dim>-1</dim>
				</port>
			</input>
			<output>
				<port id="2" precision="FP32" names="328,inverted_mask">
					<dim>-1</dim>
					<dim>1</dim>
					<dim>-1</dim>
					<dim>-1</dim>
				</port>
			</output>
		</layer>
		<layer id="250" name="__module.model/aten::to/Convert_2" type="Convert" version="opset1">
			<data destination_type="boolean" />
			<input>
				<port id="0" precision="FP32">
					<dim>-1</dim>
					<dim>1</dim>
					<dim>-1</dim>
					<dim>-1</dim>
				</port>
			</input>
			<output>
				<port id="1" precision="BOOL" names="329">
					<dim>-1</dim>
					<dim>1</dim>
					<dim>-1</dim>
					<dim>-1</dim>
				</port>
			</output>
		</layer>
		<layer id="251" name="__module.model/aten::masked_fill/ConvertLike" type="Const" version="opset1">
			<data element_type="f32" shape="" offset="269228764" size="4" />
			<output>
				<port id="0" precision="FP32" />
			</output>
		</layer>
		<layer id="252" name="__module.model/aten::masked_fill/Select" type="Select" version="opset1">
			<data auto_broadcast="numpy" />
			<input>
				<port id="0" precision="BOOL">
					<dim>-1</dim>
					<dim>1</dim>
					<dim>-1</dim>
					<dim>-1</dim>
				</port>
				<port id="1" precision="FP32" />
				<port id="2" precision="FP32">
					<dim>-1</dim>
					<dim>1</dim>
					<dim>-1</dim>
					<dim>-1</dim>
				</port>
			</input>
			<output>
				<port id="3" precision="FP32" names="330,331,expanded_attn_mask">
					<dim>-1</dim>
					<dim>1</dim>
					<dim>-1</dim>
					<dim>-1</dim>
				</port>
			</output>
		</layer>
		<layer id="253" name="__module.model/aten::to/Convert_4" type="Convert" version="opset1">
			<data destination_type="boolean" />
			<input>
				<port id="0" precision="FP32">
					<dim>-1</dim>
					<dim>1</dim>
					<dim>-1</dim>
					<dim>-1</dim>
				</port>
			</input>
			<output>
				<port id="1" precision="BOOL" names="332">
					<dim>-1</dim>
					<dim>1</dim>
					<dim>-1</dim>
					<dim>-1</dim>
				</port>
			</output>
		</layer>
		<layer id="254" name="__module.model/aten::masked_fill/ConvertLike_1" type="Const" version="opset1">
			<data element_type="f32" shape="" offset="269228764" size="4" />
			<output>
				<port id="0" precision="FP32" />
			</output>
		</layer>
		<layer id="255" name="Constant_229726" type="Const" version="opset1">
			<data element_type="i64" shape="1, 1" offset="251850992" size="8" />
			<output>
				<port id="0" precision="I64">
					<dim>1</dim>
					<dim>1</dim>
				</port>
			</output>
		</layer>
		<layer id="256" name="__module.model/aten::triu/Constant" type="Const" version="opset1">
			<data element_type="i32" shape="" offset="0" size="4" />
			<output>
				<port id="0" precision="I32" />
			</output>
		</layer>
		<layer id="257" name="__module.model/aten::add/Add" type="Add" version="opset1">
			<data auto_broadcast="numpy" />
			<input>
				<port id="0" precision="I64" />
				<port id="1" precision="I64" />
			</input>
			<output>
				<port id="2" precision="I64" names="284,key_value_length" />
			</output>
		</layer>
		<layer id="258" name="__module.model/aten::sub/Subtract" type="Subtract" version="opset1">
			<data auto_broadcast="numpy" />
			<input>
				<port id="0" precision="I64" />
				<port id="1" precision="I64" />
			</input>
			<output>
				<port id="2" precision="I64" names="286,287,past_key_values_length" />
			</output>
		</layer>
		<layer id="259" name="Convert_237847" type="Convert" version="opset1">
			<data destination_type="i32" />
			<input>
				<port id="0" precision="I64" />
			</input>
			<output>
				<port id="1" precision="I32" />
			</output>
		</layer>
		<layer id="260" name="__module.model/aten::arange/Constant" type="Const" version="opset1">
			<data element_type="i32" shape="" offset="0" size="4" />
			<output>
				<port id="0" precision="I32" />
			</output>
		</layer>
		<layer id="261" name="205" type="Const" version="opset1">
			<data element_type="f32" shape="" offset="269228764" size="4" />
			<output>
				<port id="0" precision="FP32" names="205" />
			</output>
		</layer>
		<layer id="262" name="Constant_223295" type="Const" version="opset1">
			<data element_type="i32" shape="1" offset="269228768" size="4" />
			<output>
				<port id="0" precision="I32">
					<dim>1</dim>
				</port>
			</output>
		</layer>
		<layer id="263" name="__module.model/prim::ListConstruct/Concat_3" type="Broadcast" version="opset3">
			<data mode="numpy" />
			<input>
				<port id="0" precision="I64">
					<dim>1</dim>
				</port>
				<port id="1" precision="I32">
					<dim>1</dim>
				</port>
			</input>
			<output>
				<port id="2" precision="I64" names="288">
					<dim>2</dim>
				</port>
			</output>
		</layer>
		<layer id="264" name="__module.model/aten::full/Broadcast" type="Broadcast" version="opset3">
			<data mode="numpy" />
			<input>
				<port id="0" precision="FP32" />
				<port id="1" precision="I64">
					<dim>2</dim>
				</port>
			</input>
			<output>
				<port id="2" precision="FP32" names="289_1">
					<dim>-1</dim>
					<dim>-1</dim>
				</port>
			</output>
		</layer>
		<layer id="265" name="ShapeOf_237839" type="ShapeOf" version="opset3">
			<data output_type="i64" />
			<input>
				<port id="0" precision="FP32">
					<dim>-1</dim>
					<dim>-1</dim>
				</port>
			</input>
			<output>
				<port id="1" precision="I64">
					<dim>2</dim>
				</port>
			</output>
		</layer>
		<layer id="266" name="Constant_237840" type="Const" version="opset1">
			<data element_type="i64" shape="" offset="251850992" size="8" />
			<output>
				<port id="0" precision="I64" />
			</output>
		</layer>
		<layer id="267" name="Constant_237841" type="Const" version="opset1">
			<data element_type="i64" shape="" offset="4" size="8" />
			<output>
				<port id="0" precision="I64" />
			</output>
		</layer>
		<layer id="268" name="Gather_237842" type="Gather" version="opset8">
			<data batch_dims="0" />
			<input>
				<port id="0" precision="I64">
					<dim>2</dim>
				</port>
				<port id="1" precision="I64" />
				<port id="2" precision="I64" />
			</input>
			<output>
				<port id="3" precision="I64" names="290,293" />
			</output>
		</layer>
		<layer id="269" name="__module.model/aten::arange/Constant_1" type="Const" version="opset1">
			<data element_type="i32" shape="" offset="269228772" size="4" />
			<output>
				<port id="0" precision="I32" />
			</output>
		</layer>
		<layer id="270" name="__module.model/aten::arange/Range" type="Range" version="opset4">
			<data output_type="f32" />
			<input>
				<port id="0" precision="I32" />
				<port id="1" precision="I64" />
				<port id="2" precision="I32" />
			</input>
			<output>
				<port id="3" precision="FP32">
					<dim>-1</dim>
				</port>
			</output>
		</layer>
		<layer id="271" name="__module.model/aten::arange/ConvertLike" type="Convert" version="opset1">
			<data destination_type="i64" />
			<input>
				<port id="0" precision="FP32">
					<dim>-1</dim>
				</port>
			</input>
			<output>
				<port id="1" precision="I64" names="291,mask_cond">
					<dim>-1</dim>
				</port>
			</output>
		</layer>
		<layer id="272" name="Constant_229725" type="Const" version="opset1">
			<data element_type="i64" shape="1" offset="251850992" size="8" />
			<output>
				<port id="0" precision="I64">
					<dim>1</dim>
				</port>
			</output>
		</layer>
		<layer id="273" name="__module.model/aten::add/Add_1" type="Add" version="opset1">
			<data auto_broadcast="numpy" />
			<input>
				<port id="0" precision="I64">
					<dim>-1</dim>
				</port>
				<port id="1" precision="I64">
					<dim>1</dim>
				</port>
			</input>
			<output>
				<port id="2" precision="I64" names="292">
					<dim>-1</dim>
				</port>
			</output>
		</layer>
		<layer id="274" name="Constant_238691" type="Const" version="opset1">
			<data element_type="i64" shape="2" offset="269228776" size="16" />
			<output>
				<port id="0" precision="I64">
					<dim>2</dim>
				</port>
			</output>
		</layer>
		<layer id="275" name="__module.model/aten::view/Reshape_1" type="Reshape" version="opset1">
			<data special_zero="true" />
			<input>
				<port id="0" precision="I64">
					<dim>-1</dim>
				</port>
				<port id="1" precision="I64">
					<dim>2</dim>
				</port>
			</input>
			<output>
				<port id="2" precision="I64" names="295">
					<dim>-1</dim>
					<dim>1</dim>
				</port>
			</output>
		</layer>
		<layer id="276" name="__module.model/aten::lt/Less" type="Less" version="opset1">
			<data auto_broadcast="numpy" />
			<input>
				<port id="0" precision="I64">
					<dim>-1</dim>
				</port>
				<port id="1" precision="I64">
					<dim>-1</dim>
					<dim>1</dim>
				</port>
			</input>
			<output>
				<port id="2" precision="BOOL" names="296">
					<dim>-1</dim>
					<dim>-1</dim>
				</port>
			</output>
		</layer>
		<layer id="277" name="__module.model/aten::masked_fill_/ConvertLike" type="Const" version="opset1">
			<data element_type="f32" shape="" offset="0" size="4" />
			<output>
				<port id="0" precision="FP32" />
			</output>
		</layer>
		<layer id="278" name="__module.model/aten::masked_fill_/Select" type="Select" version="opset1">
			<data auto_broadcast="numpy" />
			<input>
				<port id="0" precision="BOOL">
					<dim>-1</dim>
					<dim>-1</dim>
				</port>
				<port id="1" precision="FP32" />
				<port id="2" precision="FP32">
					<dim>-1</dim>
					<dim>-1</dim>
				</port>
			</input>
			<output>
				<port id="3" precision="FP32" names="289,298,mask.1">
					<dim>-1</dim>
					<dim>-1</dim>
				</port>
			</output>
		</layer>
		<layer id="279" name="ShapeOf_237848" type="ShapeOf" version="opset3">
			<data output_type="i32" />
			<input>
				<port id="0" precision="FP32">
					<dim>-1</dim>
					<dim>-1</dim>
				</port>
			</input>
			<output>
				<port id="1" precision="I32">
					<dim>2</dim>
				</port>
			</output>
		</layer>
		<layer id="280" name="Constant_237849" type="Const" version="opset1">
			<data element_type="i64" shape="" offset="251850992" size="8" />
			<output>
				<port id="0" precision="I64" />
			</output>
		</layer>
		<layer id="281" name="Constant_237850" type="Const" version="opset1">
			<data element_type="i64" shape="" offset="4" size="8" />
			<output>
				<port id="0" precision="I64" />
			</output>
		</layer>
		<layer id="282" name="Gather_237851" type="Gather" version="opset8">
			<data batch_dims="0" />
			<input>
				<port id="0" precision="I32">
					<dim>2</dim>
				</port>
				<port id="1" precision="I64" />
				<port id="2" precision="I64" />
			</input>
			<output>
				<port id="3" precision="I32" />
			</output>
		</layer>
		<layer id="283" name="Add_237852" type="Add" version="opset1">
			<data auto_broadcast="numpy" />
			<input>
				<port id="0" precision="I32" />
				<port id="1" precision="I32" />
			</input>
			<output>
				<port id="2" precision="I32" />
			</output>
		</layer>
		<layer id="284" name="__module.model/aten::triu/Constant_2" type="Const" version="opset1">
			<data element_type="i32" shape="" offset="269228772" size="4" />
			<output>
				<port id="0" precision="I32" />
			</output>
		</layer>
		<layer id="285" name="__module.model/aten::triu/Range" type="Range" version="opset4">
			<data output_type="i32" />
			<input>
				<port id="0" precision="I32" />
				<port id="1" precision="I32" />
				<port id="2" precision="I32" />
			</input>
			<output>
				<port id="3" precision="I32">
					<dim>-1</dim>
				</port>
			</output>
		</layer>
		<layer id="286" name="Constant_237336" type="Const" version="opset1">
			<data element_type="i64" shape="2" offset="269228792" size="16" />
			<output>
				<port id="0" precision="I64">
					<dim>2</dim>
				</port>
			</output>
		</layer>
		<layer id="287" name="__module.model/aten::triu/Unsqueeze" type="Reshape" version="opset1">
			<data special_zero="false" />
			<input>
				<port id="0" precision="I32">
					<dim>-1</dim>
				</port>
				<port id="1" precision="I64">
					<dim>2</dim>
				</port>
			</input>
			<output>
				<port id="2" precision="I32">
					<dim>1</dim>
					<dim>-1</dim>
				</port>
			</output>
		</layer>
		<layer id="288" name="Constant_227214" type="Const" version="opset1">
			<data element_type="i64" shape="" offset="269228808" size="8" />
			<output>
				<port id="0" precision="I64" />
			</output>
		</layer>
		<layer id="289" name="__module.model/aten::add/Add_2" type="Add" version="opset1">
			<data auto_broadcast="numpy" />
			<input>
				<port id="0" precision="I64" />
				<port id="1" precision="I64" />
			</input>
			<output>
				<port id="2" precision="I64" names="304,305" />
			</output>
		</layer>
		<layer id="290" name="Convert_238053" type="Convert" version="opset1">
			<data destination_type="i32" />
			<input>
				<port id="0" precision="I64" />
			</input>
			<output>
				<port id="1" precision="I32" />
			</output>
		</layer>
		<layer id="291" name="Convert_238248" type="Convert" version="opset1">
			<data destination_type="i32" />
			<input>
				<port id="0" precision="I64" />
			</input>
			<output>
				<port id="1" precision="I32" />
			</output>
		</layer>
		<layer id="292" name="__module.model/aten::triu/Add" type="Add" version="opset1">
			<data auto_broadcast="numpy" />
			<input>
				<port id="0" precision="I32" />
				<port id="1" precision="I32" />
			</input>
			<output>
				<port id="2" precision="I32" />
			</output>
		</layer>
		<layer id="293" name="__module.model/aten::triu/Range_1" type="Range" version="opset4">
			<data output_type="i32" />
			<input>
				<port id="0" precision="I32" />
				<port id="1" precision="I32" />
				<port id="2" precision="I32" />
			</input>
			<output>
				<port id="3" precision="I32">
					<dim>-1</dim>
				</port>
			</output>
		</layer>
		<layer id="294" name="Constant_237338" type="Const" version="opset1">
			<data element_type="i64" shape="2" offset="269228776" size="16" />
			<output>
				<port id="0" precision="I64">
					<dim>2</dim>
				</port>
			</output>
		</layer>
		<layer id="295" name="__module.model/aten::triu/Unsqueeze_1" type="Reshape" version="opset1">
			<data special_zero="false" />
			<input>
				<port id="0" precision="I32">
					<dim>-1</dim>
				</port>
				<port id="1" precision="I64">
					<dim>2</dim>
				</port>
			</input>
			<output>
				<port id="2" precision="I32">
					<dim>-1</dim>
					<dim>1</dim>
				</port>
			</output>
		</layer>
		<layer id="296" name="__module.model/aten::triu/GreaterEqual" type="GreaterEqual" version="opset1">
			<data auto_broadcast="numpy" />
			<input>
				<port id="0" precision="I32">
					<dim>1</dim>
					<dim>-1</dim>
				</port>
				<port id="1" precision="I32">
					<dim>-1</dim>
					<dim>1</dim>
				</port>
			</input>
			<output>
				<port id="2" precision="BOOL">
					<dim>-1</dim>
					<dim>-1</dim>
				</port>
			</output>
		</layer>
		<layer id="297" name="__module.model/aten::ones_like/Convert" type="Const" version="opset1">
			<data element_type="i64" shape="" offset="251850992" size="8" />
			<output>
				<port id="0" precision="I64" />
			</output>
		</layer>
		<layer id="298" name="__module.model/aten::zeros/Convert" type="Const" version="opset1">
			<data element_type="f32" shape="" offset="0" size="4" />
			<output>
				<port id="0" precision="FP32" />
			</output>
		</layer>
		<layer id="299" name="Constant_237707" type="Const" version="opset1">
			<data element_type="i64" shape="1" offset="251850992" size="8" />
			<output>
				<port id="0" precision="I64">
					<dim>1</dim>
				</port>
			</output>
		</layer>
		<layer id="300" name="Reshape_237708" type="Reshape" version="opset1">
			<data special_zero="false" />
			<input>
				<port id="0" precision="I64" />
				<port id="1" precision="I64">
					<dim>1</dim>
				</port>
			</input>
			<output>
				<port id="2" precision="I64">
					<dim>1</dim>
				</port>
			</output>
		</layer>
		<layer id="301" name="__module.model/prim::ListConstruct/Concat_2" type="Concat" version="opset1">
			<data axis="0" />
			<input>
				<port id="0" precision="I64">
					<dim>1</dim>
				</port>
				<port id="1" precision="I64">
					<dim>1</dim>
				</port>
			</input>
			<output>
				<port id="2" precision="I64" names="299">
					<dim>2</dim>
				</port>
			</output>
		</layer>
		<layer id="302" name="__module.model/aten::zeros/Broadcast" type="Broadcast" version="opset3">
			<data mode="numpy" />
			<input>
				<port id="0" precision="FP32" />
				<port id="1" precision="I64">
					<dim>2</dim>
				</port>
			</input>
			<output>
				<port id="2" precision="FP32" names="300">
					<dim>-1</dim>
					<dim>-1</dim>
				</port>
			</output>
		</layer>
		<layer id="303" name="__module.model/aten::cat/Concat" type="Concat" version="opset1">
			<data axis="-1" />
			<input>
				<port id="0" precision="FP32">
					<dim>-1</dim>
					<dim>-1</dim>
				</port>
				<port id="1" precision="FP32">
					<dim>-1</dim>
					<dim>-1</dim>
				</port>
			</input>
			<output>
				<port id="2" precision="FP32" names="302_1">
					<dim>-1</dim>
					<dim>-1</dim>
				</port>
			</output>
		</layer>
		<layer id="304" name="__module.model/aten::ones_like/ShapeOf" type="ShapeOf" version="opset3">
			<data output_type="i32" />
			<input>
				<port id="0" precision="FP32">
					<dim>-1</dim>
					<dim>-1</dim>
				</port>
			</input>
			<output>
				<port id="1" precision="I32">
					<dim>2</dim>
				</port>
			</output>
		</layer>
		<layer id="305" name="__module.model/aten::ones_like/Broadcast" type="Broadcast" version="opset3">
			<data mode="numpy" />
			<input>
				<port id="0" precision="I64" />
				<port id="1" precision="I32">
					<dim>2</dim>
				</port>
			</input>
			<output>
				<port id="2" precision="I64" names="306">
					<dim>-1</dim>
					<dim>-1</dim>
				</port>
			</output>
		</layer>
		<layer id="306" name="__module.model/aten::triu/ConvertLike" type="Const" version="opset1">
			<data element_type="i64" shape="" offset="4" size="8" />
			<output>
				<port id="0" precision="I64" />
			</output>
		</layer>
		<layer id="307" name="__module.model/aten::triu/Select" type="Select" version="opset1">
			<data auto_broadcast="numpy" />
			<input>
				<port id="0" precision="BOOL">
					<dim>-1</dim>
					<dim>-1</dim>
				</port>
				<port id="1" precision="I64">
					<dim>-1</dim>
					<dim>-1</dim>
				</port>
				<port id="2" precision="I64" />
			</input>
			<output>
				<port id="3" precision="I64" names="307">
					<dim>-1</dim>
					<dim>-1</dim>
				</port>
			</output>
		</layer>
		<layer id="308" name="__module.model/aten::rsub/Subtract_1" type="Subtract" version="opset1">
			<data auto_broadcast="numpy" />
			<input>
				<port id="0" precision="I64">
					<dim>1</dim>
					<dim>1</dim>
				</port>
				<port id="1" precision="I64">
					<dim>-1</dim>
					<dim>-1</dim>
				</port>
			</input>
			<output>
				<port id="2" precision="I64" names="308,context_mask">
					<dim>-1</dim>
					<dim>-1</dim>
				</port>
			</output>
		</layer>
		<layer id="309" name="__module.model/aten::to/Convert_6" type="Convert" version="opset1">
			<data destination_type="boolean" />
			<input>
				<port id="0" precision="I64">
					<dim>-1</dim>
					<dim>-1</dim>
				</port>
			</input>
			<output>
				<port id="1" precision="BOOL" names="309">
					<dim>-1</dim>
					<dim>-1</dim>
				</port>
			</output>
		</layer>
		<layer id="310" name="__module.model/aten::masked_fill_/ConvertLike_1" type="Const" version="opset1">
			<data element_type="f32" shape="" offset="269228764" size="4" />
			<output>
				<port id="0" precision="FP32" />
			</output>
		</layer>
		<layer id="311" name="__module.model/aten::masked_fill_/Select_1" type="Select" version="opset1">
			<data auto_broadcast="numpy" />
			<input>
				<port id="0" precision="BOOL">
					<dim>-1</dim>
					<dim>-1</dim>
				</port>
				<port id="1" precision="FP32" />
				<port id="2" precision="FP32">
					<dim>-1</dim>
					<dim>-1</dim>
				</port>
			</input>
			<output>
				<port id="3" precision="FP32" names="302,mask.5">
					<dim>-1</dim>
					<dim>-1</dim>
				</port>
			</output>
		</layer>
		<layer id="312" name="Constant_237340" type="Const" version="opset1">
			<data element_type="i64" shape="2" offset="269228816" size="16" />
			<output>
				<port id="0" precision="I64">
					<dim>2</dim>
				</port>
			</output>
		</layer>
		<layer id="313" name="__module.model/aten::unsqueeze/Unsqueeze_3" type="Unsqueeze" version="opset1">
			<input>
				<port id="0" precision="FP32">
					<dim>-1</dim>
					<dim>-1</dim>
				</port>
				<port id="1" precision="I64">
					<dim>2</dim>
				</port>
			</input>
			<output>
				<port id="2" precision="FP32" names="312,313,314">
					<dim>1</dim>
					<dim>1</dim>
					<dim>-1</dim>
					<dim>-1</dim>
				</port>
			</output>
		</layer>
		<layer id="314" name="Constant_192130" type="Const" version="opset1">
			<data element_type="i64" shape="1" offset="251850992" size="8" />
			<output>
				<port id="0" precision="I64">
					<dim>1</dim>
				</port>
			</output>
		</layer>
		<layer id="315" name="__module.model/aten::add/Add_3" type="Add" version="opset1">
			<data auto_broadcast="numpy" />
			<input>
				<port id="0" precision="I64">
					<dim>1</dim>
				</port>
				<port id="1" precision="I64">
					<dim>1</dim>
				</port>
			</input>
			<output>
				<port id="2" precision="I64" names="315,316">
					<dim>1</dim>
				</port>
			</output>
		</layer>
		<layer id="316" name="__module.model/prim::ListConstruct/Concat_5" type="Concat" version="opset1">
			<data axis="0" />
			<input>
				<port id="0" precision="I64">
					<dim>1</dim>
				</port>
				<port id="1" precision="I64">
					<dim>1</dim>
				</port>
				<port id="2" precision="I64">
					<dim>1</dim>
				</port>
				<port id="3" precision="I64">
					<dim>1</dim>
				</port>
			</input>
			<output>
				<port id="4" precision="I64" names="317">
					<dim>4</dim>
				</port>
			</output>
		</layer>
		<layer id="317" name="__module.model/aten::expand/Broadcast_1" type="Broadcast" version="opset3">
			<data mode="bidirectional" />
			<input>
				<port id="0" precision="FP32">
					<dim>1</dim>
					<dim>1</dim>
					<dim>-1</dim>
					<dim>-1</dim>
				</port>
				<port id="1" precision="I64">
					<dim>4</dim>
				</port>
			</input>
			<output>
				<port id="2" precision="FP32" names="318,causal_4d_mask">
					<dim>-1</dim>
					<dim>1</dim>
					<dim>-1</dim>
					<dim>-1</dim>
				</port>
			</output>
		</layer>
		<layer id="318" name="__module.model/aten::masked_fill/Select_1" type="Select" version="opset1">
			<data auto_broadcast="numpy" />
			<input>
				<port id="0" precision="BOOL">
					<dim>-1</dim>
					<dim>1</dim>
					<dim>-1</dim>
					<dim>-1</dim>
				</port>
				<port id="1" precision="FP32" />
				<port id="2" precision="FP32">
					<dim>-1</dim>
					<dim>1</dim>
					<dim>-1</dim>
					<dim>-1</dim>
				</port>
			</input>
			<output>
				<port id="3" precision="FP32" names="333,attention_mask">
					<dim>-1</dim>
					<dim>1</dim>
					<dim>-1</dim>
					<dim>-1</dim>
				</port>
			</output>
		</layer>
		<layer id="319" name="__module.model.layers.0.self_attn/aten::scaled_dot_product_attention/ScaledDotProductAttention" type="ScaledDotProductAttention" version="opset13">
			<data causal="false" />
			<input>
				<port id="0" precision="FP32">
					<dim>-1</dim>
					<dim>12</dim>
					<dim>-1</dim>
					<dim>128</dim>
				</port>
				<port id="1" precision="FP32">
					<dim>-1</dim>
					<dim>12</dim>
					<dim>-1</dim>
					<dim>128</dim>
				</port>
				<port id="2" precision="FP32">
					<dim>-1</dim>
					<dim>12</dim>
					<dim>-1</dim>
					<dim>128</dim>
				</port>
				<port id="3" precision="FP32">
					<dim>-1</dim>
					<dim>1</dim>
					<dim>-1</dim>
					<dim>-1</dim>
				</port>
			</input>
			<output>
				<port id="4" precision="FP32" names="469,attn_output.1">
					<dim>-1</dim>
					<dim>12</dim>
					<dim>-1</dim>
					<dim>128</dim>
				</port>
			</output>
		</layer>
		<layer id="320" name="__module.model.layers.0.self_attn/aten::transpose/ScatterElementsUpdate_3" type="Const" version="opset1">
			<data element_type="i32" shape="4" offset="235073760" size="16" />
			<output>
				<port id="0" precision="I32">
					<dim>4</dim>
				</port>
			</output>
		</layer>
		<layer id="321" name="__module.model.layers.0.self_attn/aten::transpose/Transpose_3" type="Transpose" version="opset1">
			<input>
				<port id="0" precision="FP32">
					<dim>-1</dim>
					<dim>12</dim>
					<dim>-1</dim>
					<dim>128</dim>
				</port>
				<port id="1" precision="I32">
					<dim>4</dim>
				</port>
			</input>
			<output>
				<port id="2" precision="FP32" names="470">
					<dim>-1</dim>
					<dim>-1</dim>
					<dim>12</dim>
					<dim>128</dim>
				</port>
			</output>
		</layer>
		<layer id="322" name="Constant_238692" type="Const" version="opset1">
			<data element_type="i64" shape="3" offset="269228832" size="24" />
			<output>
				<port id="0" precision="I64">
					<dim>3</dim>
				</port>
			</output>
		</layer>
		<layer id="323" name="__module.model.layers.0.self_attn/aten::view/Reshape_3" type="Reshape" version="opset1">
			<data special_zero="true" />
			<input>
				<port id="0" precision="FP32">
					<dim>-1</dim>
					<dim>-1</dim>
					<dim>12</dim>
					<dim>128</dim>
				</port>
				<port id="1" precision="I64">
					<dim>3</dim>
				</port>
			</input>
			<output>
				<port id="2" precision="FP32" names="473">
					<dim>-1</dim>
					<dim>-1</dim>
					<dim>1536</dim>
				</port>
			</output>
		</layer>
		<layer id="324" name="self.model.layers.0.self_attn.o_proj.weight" type="Const" version="opset1">
			<data element_type="u8" shape="1536, 1536" offset="269228856" size="2359296" />
			<output>
				<port id="0" precision="U8">
					<dim>1536</dim>
					<dim>1536</dim>
				</port>
			</output>
		</layer>
		<layer id="325" name="Convert_277263" type="Convert" version="opset1">
			<data destination_type="f16" />
			<input>
				<port id="0" precision="U8">
					<dim>1536</dim>
					<dim>1536</dim>
				</port>
			</input>
			<output>
				<port id="1" precision="FP16">
					<dim>1536</dim>
					<dim>1536</dim>
				</port>
			</output>
		</layer>
		<layer id="326" name="self.model.layers.0.self_attn.o_proj.weight/zero_point" type="Const" version="opset1">
			<data element_type="u8" shape="1536, 1" offset="271588152" size="1536" />
			<output>
				<port id="0" precision="U8">
					<dim>1536</dim>
					<dim>1</dim>
				</port>
			</output>
		</layer>
		<layer id="327" name="Convert_277266" type="Convert" version="opset1">
			<data destination_type="f16" />
			<input>
				<port id="0" precision="U8">
					<dim>1536</dim>
					<dim>1</dim>
				</port>
			</input>
			<output>
				<port id="1" precision="FP16">
					<dim>1536</dim>
					<dim>1</dim>
				</port>
			</output>
		</layer>
		<layer id="328" name="self.model.layers.0.self_attn.o_proj.weight/zero_point/subtract" type="Subtract" version="opset1">
			<data auto_broadcast="numpy" />
			<input>
				<port id="0" precision="FP16">
					<dim>1536</dim>
					<dim>1536</dim>
				</port>
				<port id="1" precision="FP16">
					<dim>1536</dim>
					<dim>1</dim>
				</port>
			</input>
			<output>
				<port id="2" precision="FP16">
					<dim>1536</dim>
					<dim>1536</dim>
				</port>
			</output>
		</layer>
		<layer id="329" name="self.model.layers.0.self_attn.o_proj.weight/scale" type="Const" version="opset1">
			<data element_type="f16" shape="1536, 1" offset="271589688" size="3072" />
			<output>
				<port id="0" precision="FP16">
					<dim>1536</dim>
					<dim>1</dim>
				</port>
			</output>
		</layer>
		<layer id="330" name="self.model.layers.0.self_attn.o_proj.weight/fq_weights_1" type="Multiply" version="opset1">
			<data auto_broadcast="numpy" />
			<input>
				<port id="0" precision="FP16">
					<dim>1536</dim>
					<dim>1536</dim>
				</port>
				<port id="1" precision="FP16">
					<dim>1536</dim>
					<dim>1</dim>
				</port>
			</input>
			<output>
				<port id="2" precision="FP16">
					<dim>1536</dim>
					<dim>1536</dim>
				</port>
			</output>
		</layer>
		<layer id="331" name="self.model.layers.0.self_attn.o_proj.weight/fq_weights_1/convert" type="Convert" version="opset1">
			<data destination_type="f32" />
			<input>
				<port id="0" precision="FP16">
					<dim>1536</dim>
					<dim>1536</dim>
				</port>
			</input>
			<output>
				<port id="1" precision="FP32">
					<dim>1536</dim>
					<dim>1536</dim>
				</port>
			</output>
		</layer>
		<layer id="332" name="__module.model.layers.0.self_attn.o_proj/aten::linear/MatMul" type="MatMul" version="opset1">
			<data transpose_a="false" transpose_b="true" />
			<input>
				<port id="0" precision="FP32">
					<dim>-1</dim>
					<dim>-1</dim>
					<dim>1536</dim>
				</port>
				<port id="1" precision="FP32">
					<dim>1536</dim>
					<dim>1536</dim>
				</port>
			</input>
			<output>
				<port id="2" precision="FP32" names="475,477,hidden_states.19">
					<dim>-1</dim>
					<dim>-1</dim>
					<dim>1536</dim>
				</port>
			</output>
		</layer>
		<layer id="333" name="__module.model.layers.0/aten::add/Add" type="Add" version="opset1">
			<data auto_broadcast="numpy" />
			<input>
				<port id="0" precision="FP32">
					<dim>-1</dim>
					<dim>-1</dim>
					<dim>1536</dim>
				</port>
				<port id="1" precision="FP32">
					<dim>-1</dim>
					<dim>-1</dim>
					<dim>1536</dim>
				</port>
			</input>
			<output>
				<port id="2" precision="FP32" names="480,482,493,hidden_states.21,hidden_states.23">
					<dim>-1</dim>
					<dim>-1</dim>
					<dim>1536</dim>
				</port>
			</output>
		</layer>
		<layer id="334" name="Constant_229730" type="Const" version="opset1">
			<data element_type="f32" shape="1, 1, 1536" offset="271592760" size="6144" />
			<output>
				<port id="0" precision="FP32">
					<dim>1</dim>
					<dim>1</dim>
					<dim>1536</dim>
				</port>
			</output>
		</layer>
		<layer id="335" name="Constant_229729" type="Const" version="opset1">
			<data element_type="f32" shape="1, 1, 1" offset="233841820" size="4" />
			<output>
				<port id="0" precision="FP32">
					<dim>1</dim>
					<dim>1</dim>
					<dim>1</dim>
				</port>
			</output>
		</layer>
		<layer id="336" name="Constant_229727" type="Const" version="opset1">
			<data element_type="f32" shape="1, 1, 1" offset="233841824" size="4" />
			<output>
				<port id="0" precision="FP32">
					<dim>1</dim>
					<dim>1</dim>
					<dim>1</dim>
				</port>
			</output>
		</layer>
		<layer id="337" name="__module.model.layers.0.post_attention_layernorm/aten::pow/Power" type="Power" version="opset1">
			<data auto_broadcast="numpy" />
			<input>
				<port id="0" precision="FP32">
					<dim>-1</dim>
					<dim>-1</dim>
					<dim>1536</dim>
				</port>
				<port id="1" precision="FP32">
					<dim>1</dim>
					<dim>1</dim>
					<dim>1</dim>
				</port>
			</input>
			<output>
				<port id="2" precision="FP32" names="483">
					<dim>-1</dim>
					<dim>-1</dim>
					<dim>1536</dim>
				</port>
			</output>
		</layer>
		<layer id="338" name="Constant_967" type="Const" version="opset1">
			<data element_type="i64" shape="1" offset="233841828" size="8" />
			<output>
				<port id="0" precision="I64" names="484">
					<dim>1</dim>
				</port>
			</output>
		</layer>
		<layer id="339" name="__module.model.layers.0.post_attention_layernorm/aten::mean/ReduceMean" type="ReduceMean" version="opset1">
			<data keep_dims="true" />
			<input>
				<port id="0" precision="FP32">
					<dim>-1</dim>
					<dim>-1</dim>
					<dim>1536</dim>
				</port>
				<port id="1" precision="I64">
					<dim>1</dim>
				</port>
			</input>
			<output>
				<port id="2" precision="FP32" names="485,variance.3">
					<dim>-1</dim>
					<dim>-1</dim>
					<dim>1</dim>
				</port>
			</output>
		</layer>
		<layer id="340" name="Constant_229728" type="Const" version="opset1">
			<data element_type="f32" shape="1, 1, 1" offset="233841836" size="4" />
			<output>
				<port id="0" precision="FP32">
					<dim>1</dim>
					<dim>1</dim>
					<dim>1</dim>
				</port>
			</output>
		</layer>
		<layer id="341" name="__module.model.layers.0.post_attention_layernorm/aten::add/Add" type="Add" version="opset1">
			<data auto_broadcast="numpy" />
			<input>
				<port id="0" precision="FP32">
					<dim>-1</dim>
					<dim>-1</dim>
					<dim>1</dim>
				</port>
				<port id="1" precision="FP32">
					<dim>1</dim>
					<dim>1</dim>
					<dim>1</dim>
				</port>
			</input>
			<output>
				<port id="2" precision="FP32" names="486">
					<dim>-1</dim>
					<dim>-1</dim>
					<dim>1</dim>
				</port>
			</output>
		</layer>
		<layer id="342" name="__module.model.layers.0.post_attention_layernorm/aten::rsqrt/Sqrt" type="Sqrt" version="opset1">
			<input>
				<port id="0" precision="FP32">
					<dim>-1</dim>
					<dim>-1</dim>
					<dim>1</dim>
				</port>
			</input>
			<output>
				<port id="1" precision="FP32">
					<dim>-1</dim>
					<dim>-1</dim>
					<dim>1</dim>
				</port>
			</output>
		</layer>
		<layer id="343" name="__module.model.layers.0.post_attention_layernorm/aten::rsqrt/Divide" type="Divide" version="opset1">
			<data auto_broadcast="numpy" m_pythondiv="true" />
			<input>
				<port id="0" precision="FP32">
					<dim>1</dim>
					<dim>1</dim>
					<dim>1</dim>
				</port>
				<port id="1" precision="FP32">
					<dim>-1</dim>
					<dim>-1</dim>
					<dim>1</dim>
				</port>
			</input>
			<output>
				<port id="2" precision="FP32" names="487">
					<dim>-1</dim>
					<dim>-1</dim>
					<dim>1</dim>
				</port>
			</output>
		</layer>
		<layer id="344" name="__module.model.layers.0.post_attention_layernorm/aten::mul/Multiply" type="Multiply" version="opset1">
			<data auto_broadcast="numpy" />
			<input>
				<port id="0" precision="FP32">
					<dim>-1</dim>
					<dim>-1</dim>
					<dim>1536</dim>
				</port>
				<port id="1" precision="FP32">
					<dim>-1</dim>
					<dim>-1</dim>
					<dim>1</dim>
				</port>
			</input>
			<output>
				<port id="2" precision="FP32" names="488,489,hidden_states.25,hidden_states.27">
					<dim>-1</dim>
					<dim>-1</dim>
					<dim>1536</dim>
				</port>
			</output>
		</layer>
		<layer id="345" name="__module.model.layers.0.post_attention_layernorm/aten::mul/Multiply_1" type="Multiply" version="opset1">
			<data auto_broadcast="numpy" />
			<input>
				<port id="0" precision="FP32">
					<dim>1</dim>
					<dim>1</dim>
					<dim>1536</dim>
				</port>
				<port id="1" precision="FP32">
					<dim>-1</dim>
					<dim>-1</dim>
					<dim>1536</dim>
				</port>
			</input>
			<output>
				<port id="2" precision="FP32" names="490,492">
					<dim>-1</dim>
					<dim>-1</dim>
					<dim>1536</dim>
				</port>
			</output>
		</layer>
		<layer id="346" name="self.model.layers.0.mlp.gate_proj.weight" type="Const" version="opset1">
			<data element_type="u8" shape="8960, 1536" offset="271598904" size="13762560" />
			<output>
				<port id="0" precision="U8">
					<dim>8960</dim>
					<dim>1536</dim>
				</port>
			</output>
		</layer>
		<layer id="347" name="Convert_277285" type="Convert" version="opset1">
			<data destination_type="f16" />
			<input>
				<port id="0" precision="U8">
					<dim>8960</dim>
					<dim>1536</dim>
				</port>
			</input>
			<output>
				<port id="1" precision="FP16">
					<dim>8960</dim>
					<dim>1536</dim>
				</port>
			</output>
		</layer>
		<layer id="348" name="self.model.layers.0.mlp.gate_proj.weight/zero_point" type="Const" version="opset1">
			<data element_type="u8" shape="8960, 1" offset="285361464" size="8960" />
			<output>
				<port id="0" precision="U8">
					<dim>8960</dim>
					<dim>1</dim>
				</port>
			</output>
		</layer>
		<layer id="349" name="Convert_277288" type="Convert" version="opset1">
			<data destination_type="f16" />
			<input>
				<port id="0" precision="U8">
					<dim>8960</dim>
					<dim>1</dim>
				</port>
			</input>
			<output>
				<port id="1" precision="FP16">
					<dim>8960</dim>
					<dim>1</dim>
				</port>
			</output>
		</layer>
		<layer id="350" name="self.model.layers.0.mlp.gate_proj.weight/zero_point/subtract" type="Subtract" version="opset1">
			<data auto_broadcast="numpy" />
			<input>
				<port id="0" precision="FP16">
					<dim>8960</dim>
					<dim>1536</dim>
				</port>
				<port id="1" precision="FP16">
					<dim>8960</dim>
					<dim>1</dim>
				</port>
			</input>
			<output>
				<port id="2" precision="FP16">
					<dim>8960</dim>
					<dim>1536</dim>
				</port>
			</output>
		</layer>
		<layer id="351" name="self.model.layers.0.mlp.gate_proj.weight/scale" type="Const" version="opset1">
			<data element_type="f16" shape="8960, 1" offset="285370424" size="17920" />
			<output>
				<port id="0" precision="FP16">
					<dim>8960</dim>
					<dim>1</dim>
				</port>
			</output>
		</layer>
		<layer id="352" name="self.model.layers.0.mlp.gate_proj.weight/fq_weights_1" type="Multiply" version="opset1">
			<data auto_broadcast="numpy" />
			<input>
				<port id="0" precision="FP16">
					<dim>8960</dim>
					<dim>1536</dim>
				</port>
				<port id="1" precision="FP16">
					<dim>8960</dim>
					<dim>1</dim>
				</port>
			</input>
			<output>
				<port id="2" precision="FP16">
					<dim>8960</dim>
					<dim>1536</dim>
				</port>
			</output>
		</layer>
		<layer id="353" name="self.model.layers.0.mlp.gate_proj.weight/fq_weights_1/convert" type="Convert" version="opset1">
			<data destination_type="f32" />
			<input>
				<port id="0" precision="FP16">
					<dim>8960</dim>
					<dim>1536</dim>
				</port>
			</input>
			<output>
				<port id="1" precision="FP32">
					<dim>8960</dim>
					<dim>1536</dim>
				</port>
			</output>
		</layer>
		<layer id="354" name="__module.model.layers.0.mlp.gate_proj/aten::linear/MatMul" type="MatMul" version="opset1">
			<data transpose_a="false" transpose_b="true" />
			<input>
				<port id="0" precision="FP32">
					<dim>-1</dim>
					<dim>-1</dim>
					<dim>1536</dim>
				</port>
				<port id="1" precision="FP32">
					<dim>8960</dim>
					<dim>1536</dim>
				</port>
			</input>
			<output>
				<port id="2" precision="FP32" names="498,input.1">
					<dim>-1</dim>
					<dim>-1</dim>
					<dim>8960</dim>
				</port>
			</output>
		</layer>
		<layer id="355" name="__module.model.layers.0.mlp.act_fn/aten::silu/Swish" type="Swish" version="opset4">
			<input>
				<port id="0" precision="FP32">
					<dim>-1</dim>
					<dim>-1</dim>
					<dim>8960</dim>
				</port>
			</input>
			<output>
				<port id="1" precision="FP32" names="499">
					<dim>-1</dim>
					<dim>-1</dim>
					<dim>8960</dim>
				</port>
			</output>
		</layer>
		<layer id="356" name="self.model.layers.0.mlp.up_proj.weight" type="Const" version="opset1">
			<data element_type="u8" shape="8960, 1536" offset="285388344" size="13762560" />
			<output>
				<port id="0" precision="U8">
					<dim>8960</dim>
					<dim>1536</dim>
				</port>
			</output>
		</layer>
		<layer id="357" name="Convert_277274" type="Convert" version="opset1">
			<data destination_type="f16" />
			<input>
				<port id="0" precision="U8">
					<dim>8960</dim>
					<dim>1536</dim>
				</port>
			</input>
			<output>
				<port id="1" precision="FP16">
					<dim>8960</dim>
					<dim>1536</dim>
				</port>
			</output>
		</layer>
		<layer id="358" name="self.model.layers.0.mlp.up_proj.weight/zero_point" type="Const" version="opset1">
			<data element_type="u8" shape="8960, 1" offset="299150904" size="8960" />
			<output>
				<port id="0" precision="U8">
					<dim>8960</dim>
					<dim>1</dim>
				</port>
			</output>
		</layer>
		<layer id="359" name="Convert_277277" type="Convert" version="opset1">
			<data destination_type="f16" />
			<input>
				<port id="0" precision="U8">
					<dim>8960</dim>
					<dim>1</dim>
				</port>
			</input>
			<output>
				<port id="1" precision="FP16">
					<dim>8960</dim>
					<dim>1</dim>
				</port>
			</output>
		</layer>
		<layer id="360" name="self.model.layers.0.mlp.up_proj.weight/zero_point/subtract" type="Subtract" version="opset1">
			<data auto_broadcast="numpy" />
			<input>
				<port id="0" precision="FP16">
					<dim>8960</dim>
					<dim>1536</dim>
				</port>
				<port id="1" precision="FP16">
					<dim>8960</dim>
					<dim>1</dim>
				</port>
			</input>
			<output>
				<port id="2" precision="FP16">
					<dim>8960</dim>
					<dim>1536</dim>
				</port>
			</output>
		</layer>
		<layer id="361" name="self.model.layers.0.mlp.up_proj.weight/scale" type="Const" version="opset1">
			<data element_type="f16" shape="8960, 1" offset="299159864" size="17920" />
			<output>
				<port id="0" precision="FP16">
					<dim>8960</dim>
					<dim>1</dim>
				</port>
			</output>
		</layer>
		<layer id="362" name="self.model.layers.0.mlp.up_proj.weight/fq_weights_1" type="Multiply" version="opset1">
			<data auto_broadcast="numpy" />
			<input>
				<port id="0" precision="FP16">
					<dim>8960</dim>
					<dim>1536</dim>
				</port>
				<port id="1" precision="FP16">
					<dim>8960</dim>
					<dim>1</dim>
				</port>
			</input>
			<output>
				<port id="2" precision="FP16">
					<dim>8960</dim>
					<dim>1536</dim>
				</port>
			</output>
		</layer>
		<layer id="363" name="self.model.layers.0.mlp.up_proj.weight/fq_weights_1/convert" type="Convert" version="opset1">
			<data destination_type="f32" />
			<input>
				<port id="0" precision="FP16">
					<dim>8960</dim>
					<dim>1536</dim>
				</port>
			</input>
			<output>
				<port id="1" precision="FP32">
					<dim>8960</dim>
					<dim>1536</dim>
				</port>
			</output>
		</layer>
		<layer id="364" name="__module.model.layers.0.mlp.up_proj/aten::linear/MatMul" type="MatMul" version="opset1">
			<data transpose_a="false" transpose_b="true" />
			<input>
				<port id="0" precision="FP32">
					<dim>-1</dim>
					<dim>-1</dim>
					<dim>1536</dim>
				</port>
				<port id="1" precision="FP32">
					<dim>8960</dim>
					<dim>1536</dim>
				</port>
			</input>
			<output>
				<port id="2" precision="FP32" names="501">
					<dim>-1</dim>
					<dim>-1</dim>
					<dim>8960</dim>
				</port>
			</output>
		</layer>
		<layer id="365" name="__module.model.layers.0.mlp/aten::mul/Multiply" type="Multiply" version="opset1">
			<data auto_broadcast="numpy" />
			<input>
				<port id="0" precision="FP32">
					<dim>-1</dim>
					<dim>-1</dim>
					<dim>8960</dim>
				</port>
				<port id="1" precision="FP32">
					<dim>-1</dim>
					<dim>-1</dim>
					<dim>8960</dim>
				</port>
			</input>
			<output>
				<port id="2" precision="FP32" names="502">
					<dim>-1</dim>
					<dim>-1</dim>
					<dim>8960</dim>
				</port>
			</output>
		</layer>
		<layer id="366" name="self.model.layers.0.mlp.down_proj.weight" type="Const" version="opset1">
			<data element_type="u4" shape="1536, 70, 128" offset="299177784" size="6881280" />
			<output>
				<port id="0" precision="U4">
					<dim>1536</dim>
					<dim>70</dim>
					<dim>128</dim>
				</port>
			</output>
		</layer>
		<layer id="367" name="Convert_277295" type="Convert" version="opset1">
			<data destination_type="f16" />
			<input>
				<port id="0" precision="U4">
					<dim>1536</dim>
					<dim>70</dim>
					<dim>128</dim>
				</port>
			</input>
			<output>
				<port id="1" precision="FP16">
					<dim>1536</dim>
					<dim>70</dim>
					<dim>128</dim>
				</port>
			</output>
		</layer>
		<layer id="368" name="self.model.layers.0.mlp.down_proj.weight/zero_point" type="Const" version="opset1">
			<data element_type="u4" shape="1536, 70, 1" offset="306059064" size="53760" />
			<output>
				<port id="0" precision="U4">
					<dim>1536</dim>
					<dim>70</dim>
					<dim>1</dim>
				</port>
			</output>
		</layer>
		<layer id="369" name="Convert_277297" type="Convert" version="opset1">
			<data destination_type="f16" />
			<input>
				<port id="0" precision="U4">
					<dim>1536</dim>
					<dim>70</dim>
					<dim>1</dim>
				</port>
			</input>
			<output>
				<port id="1" precision="FP16">
					<dim>1536</dim>
					<dim>70</dim>
					<dim>1</dim>
				</port>
			</output>
		</layer>
		<layer id="370" name="self.model.layers.0.mlp.down_proj.weight/zero_point/subtract" type="Subtract" version="opset1">
			<data auto_broadcast="numpy" />
			<input>
				<port id="0" precision="FP16">
					<dim>1536</dim>
					<dim>70</dim>
					<dim>128</dim>
				</port>
				<port id="1" precision="FP16">
					<dim>1536</dim>
					<dim>70</dim>
					<dim>1</dim>
				</port>
			</input>
			<output>
				<port id="2" precision="FP16">
					<dim>1536</dim>
					<dim>70</dim>
					<dim>128</dim>
				</port>
			</output>
		</layer>
		<layer id="371" name="self.model.layers.0.mlp.down_proj.weight/scale" type="Const" version="opset1">
			<data element_type="f16" shape="1536, 70, 1" offset="306112824" size="215040" />
			<output>
				<port id="0" precision="FP16">
					<dim>1536</dim>
					<dim>70</dim>
					<dim>1</dim>
				</port>
			</output>
		</layer>
		<layer id="372" name="self.model.layers.0.mlp.down_proj.weight/fq_weights_1" type="Multiply" version="opset1">
			<data auto_broadcast="numpy" />
			<input>
				<port id="0" precision="FP16">
					<dim>1536</dim>
					<dim>70</dim>
					<dim>128</dim>
				</port>
				<port id="1" precision="FP16">
					<dim>1536</dim>
					<dim>70</dim>
					<dim>1</dim>
				</port>
			</input>
			<output>
				<port id="2" precision="FP16">
					<dim>1536</dim>
					<dim>70</dim>
					<dim>128</dim>
				</port>
			</output>
		</layer>
		<layer id="373" name="Constant_277302" type="Const" version="opset1">
			<data element_type="i64" shape="2" offset="306327864" size="16" />
			<output>
				<port id="0" precision="I64">
					<dim>2</dim>
				</port>
			</output>
		</layer>
		<layer id="374" name="Reshape_277303" type="Reshape" version="opset1">
			<data special_zero="false" />
			<input>
				<port id="0" precision="FP16">
					<dim>1536</dim>
					<dim>70</dim>
					<dim>128</dim>
				</port>
				<port id="1" precision="I64">
					<dim>2</dim>
				</port>
			</input>
			<output>
				<port id="2" precision="FP16">
					<dim>1536</dim>
					<dim>8960</dim>
				</port>
			</output>
		</layer>
		<layer id="375" name="self.model.layers.0.mlp.down_proj.weight/fq_weights_1/convert" type="Convert" version="opset1">
			<data destination_type="f32" />
			<input>
				<port id="0" precision="FP16">
					<dim>1536</dim>
					<dim>8960</dim>
				</port>
			</input>
			<output>
				<port id="1" precision="FP32">
					<dim>1536</dim>
					<dim>8960</dim>
				</port>
			</output>
		</layer>
		<layer id="376" name="__module.model.layers.0.mlp.down_proj/aten::linear/MatMul" type="MatMul" version="opset1">
			<data transpose_a="false" transpose_b="true" />
			<input>
				<port id="0" precision="FP32">
					<dim>-1</dim>
					<dim>-1</dim>
					<dim>8960</dim>
				</port>
				<port id="1" precision="FP32">
					<dim>1536</dim>
					<dim>8960</dim>
				</port>
			</input>
			<output>
				<port id="2" precision="FP32" names="504,hidden_states.29">
					<dim>-1</dim>
					<dim>-1</dim>
					<dim>1536</dim>
				</port>
			</output>
		</layer>
		<layer id="377" name="__module.model.layers.0/aten::add/Add_1" type="Add" version="opset1">
			<data auto_broadcast="numpy" />
			<input>
				<port id="0" precision="FP32">
					<dim>-1</dim>
					<dim>-1</dim>
					<dim>1536</dim>
				</port>
				<port id="1" precision="FP32">
					<dim>-1</dim>
					<dim>-1</dim>
					<dim>1536</dim>
				</port>
			</input>
			<output>
				<port id="2" precision="FP32" names="505,507,515,526,hidden_states.31,hidden_states.33">
					<dim>-1</dim>
					<dim>-1</dim>
					<dim>1536</dim>
				</port>
			</output>
		</layer>
		<layer id="378" name="Constant_229734" type="Const" version="opset1">
			<data element_type="f32" shape="1, 1, 1536" offset="306327880" size="6144" />
			<output>
				<port id="0" precision="FP32">
					<dim>1</dim>
					<dim>1</dim>
					<dim>1536</dim>
				</port>
			</output>
		</layer>
		<layer id="379" name="Constant_229733" type="Const" version="opset1">
			<data element_type="f32" shape="1, 1, 1" offset="233841820" size="4" />
			<output>
				<port id="0" precision="FP32">
					<dim>1</dim>
					<dim>1</dim>
					<dim>1</dim>
				</port>
			</output>
		</layer>
		<layer id="380" name="Constant_229731" type="Const" version="opset1">
			<data element_type="f32" shape="1, 1, 1" offset="233841824" size="4" />
			<output>
				<port id="0" precision="FP32">
					<dim>1</dim>
					<dim>1</dim>
					<dim>1</dim>
				</port>
			</output>
		</layer>
		<layer id="381" name="__module.model.layers.1.input_layernorm/aten::pow/Power" type="Power" version="opset1">
			<data auto_broadcast="numpy" />
			<input>
				<port id="0" precision="FP32">
					<dim>-1</dim>
					<dim>-1</dim>
					<dim>1536</dim>
				</port>
				<port id="1" precision="FP32">
					<dim>1</dim>
					<dim>1</dim>
					<dim>1</dim>
				</port>
			</input>
			<output>
				<port id="2" precision="FP32" names="516">
					<dim>-1</dim>
					<dim>-1</dim>
					<dim>1536</dim>
				</port>
			</output>
		</layer>
		<layer id="382" name="Constant_1038" type="Const" version="opset1">
			<data element_type="i64" shape="1" offset="233841828" size="8" />
			<output>
				<port id="0" precision="I64" names="517">
					<dim>1</dim>
				</port>
			</output>
		</layer>
		<layer id="383" name="__module.model.layers.1.input_layernorm/aten::mean/ReduceMean" type="ReduceMean" version="opset1">
			<data keep_dims="true" />
			<input>
				<port id="0" precision="FP32">
					<dim>-1</dim>
					<dim>-1</dim>
					<dim>1536</dim>
				</port>
				<port id="1" precision="I64">
					<dim>1</dim>
				</port>
			</input>
			<output>
				<port id="2" precision="FP32" names="518,variance.5">
					<dim>-1</dim>
					<dim>-1</dim>
					<dim>1</dim>
				</port>
			</output>
		</layer>
		<layer id="384" name="Constant_229732" type="Const" version="opset1">
			<data element_type="f32" shape="1, 1, 1" offset="233841836" size="4" />
			<output>
				<port id="0" precision="FP32">
					<dim>1</dim>
					<dim>1</dim>
					<dim>1</dim>
				</port>
			</output>
		</layer>
		<layer id="385" name="__module.model.layers.1.input_layernorm/aten::add/Add" type="Add" version="opset1">
			<data auto_broadcast="numpy" />
			<input>
				<port id="0" precision="FP32">
					<dim>-1</dim>
					<dim>-1</dim>
					<dim>1</dim>
				</port>
				<port id="1" precision="FP32">
					<dim>1</dim>
					<dim>1</dim>
					<dim>1</dim>
				</port>
			</input>
			<output>
				<port id="2" precision="FP32" names="519">
					<dim>-1</dim>
					<dim>-1</dim>
					<dim>1</dim>
				</port>
			</output>
		</layer>
		<layer id="386" name="__module.model.layers.1.input_layernorm/aten::rsqrt/Sqrt" type="Sqrt" version="opset1">
			<input>
				<port id="0" precision="FP32">
					<dim>-1</dim>
					<dim>-1</dim>
					<dim>1</dim>
				</port>
			</input>
			<output>
				<port id="1" precision="FP32">
					<dim>-1</dim>
					<dim>-1</dim>
					<dim>1</dim>
				</port>
			</output>
		</layer>
		<layer id="387" name="__module.model.layers.1.input_layernorm/aten::rsqrt/Divide" type="Divide" version="opset1">
			<data auto_broadcast="numpy" m_pythondiv="true" />
			<input>
				<port id="0" precision="FP32">
					<dim>1</dim>
					<dim>1</dim>
					<dim>1</dim>
				</port>
				<port id="1" precision="FP32">
					<dim>-1</dim>
					<dim>-1</dim>
					<dim>1</dim>
				</port>
			</input>
			<output>
				<port id="2" precision="FP32" names="520">
					<dim>-1</dim>
					<dim>-1</dim>
					<dim>1</dim>
				</port>
			</output>
		</layer>
		<layer id="388" name="__module.model.layers.1.input_layernorm/aten::mul/Multiply" type="Multiply" version="opset1">
			<data auto_broadcast="numpy" />
			<input>
				<port id="0" precision="FP32">
					<dim>-1</dim>
					<dim>-1</dim>
					<dim>1536</dim>
				</port>
				<port id="1" precision="FP32">
					<dim>-1</dim>
					<dim>-1</dim>
					<dim>1</dim>
				</port>
			</input>
			<output>
				<port id="2" precision="FP32" names="521,522,hidden_states.35,hidden_states.37">
					<dim>-1</dim>
					<dim>-1</dim>
					<dim>1536</dim>
				</port>
			</output>
		</layer>
		<layer id="389" name="__module.model.layers.1.input_layernorm/aten::mul/Multiply_1" type="Multiply" version="opset1">
			<data auto_broadcast="numpy" />
			<input>
				<port id="0" precision="FP32">
					<dim>1</dim>
					<dim>1</dim>
					<dim>1536</dim>
				</port>
				<port id="1" precision="FP32">
					<dim>-1</dim>
					<dim>-1</dim>
					<dim>1536</dim>
				</port>
			</input>
			<output>
				<port id="2" precision="FP32" names="523,525,hidden_states.39">
					<dim>-1</dim>
					<dim>-1</dim>
					<dim>1536</dim>
				</port>
			</output>
		</layer>
		<layer id="390" name="self.model.layers.1.self_attn.q_proj.weight" type="Const" version="opset1">
			<data element_type="u8" shape="1536, 1536" offset="306334024" size="2359296" />
			<output>
				<port id="0" precision="U8">
					<dim>1536</dim>
					<dim>1536</dim>
				</port>
			</output>
		</layer>
		<layer id="391" name="Convert_277329" type="Convert" version="opset1">
			<data destination_type="f16" />
			<input>
				<port id="0" precision="U8">
					<dim>1536</dim>
					<dim>1536</dim>
				</port>
			</input>
			<output>
				<port id="1" precision="FP16">
					<dim>1536</dim>
					<dim>1536</dim>
				</port>
			</output>
		</layer>
		<layer id="392" name="self.model.layers.1.self_attn.q_proj.weight/zero_point" type="Const" version="opset1">
			<data element_type="u8" shape="1536, 1" offset="308693320" size="1536" />
			<output>
				<port id="0" precision="U8">
					<dim>1536</dim>
					<dim>1</dim>
				</port>
			</output>
		</layer>
		<layer id="393" name="Convert_277332" type="Convert" version="opset1">
			<data destination_type="f16" />
			<input>
				<port id="0" precision="U8">
					<dim>1536</dim>
					<dim>1</dim>
				</port>
			</input>
			<output>
				<port id="1" precision="FP16">
					<dim>1536</dim>
					<dim>1</dim>
				</port>
			</output>
		</layer>
		<layer id="394" name="self.model.layers.1.self_attn.q_proj.weight/zero_point/subtract" type="Subtract" version="opset1">
			<data auto_broadcast="numpy" />
			<input>
				<port id="0" precision="FP16">
					<dim>1536</dim>
					<dim>1536</dim>
				</port>
				<port id="1" precision="FP16">
					<dim>1536</dim>
					<dim>1</dim>
				</port>
			</input>
			<output>
				<port id="2" precision="FP16">
					<dim>1536</dim>
					<dim>1536</dim>
				</port>
			</output>
		</layer>
		<layer id="395" name="self.model.layers.1.self_attn.q_proj.weight/scale" type="Const" version="opset1">
			<data element_type="f16" shape="1536, 1" offset="308694856" size="3072" />
			<output>
				<port id="0" precision="FP16">
					<dim>1536</dim>
					<dim>1</dim>
				</port>
			</output>
		</layer>
		<layer id="396" name="self.model.layers.1.self_attn.q_proj.weight/fq_weights_1" type="Multiply" version="opset1">
			<data auto_broadcast="numpy" />
			<input>
				<port id="0" precision="FP16">
					<dim>1536</dim>
					<dim>1536</dim>
				</port>
				<port id="1" precision="FP16">
					<dim>1536</dim>
					<dim>1</dim>
				</port>
			</input>
			<output>
				<port id="2" precision="FP16">
					<dim>1536</dim>
					<dim>1536</dim>
				</port>
			</output>
		</layer>
		<layer id="397" name="self.model.layers.1.self_attn.q_proj.weight/fq_weights_1/convert" type="Convert" version="opset1">
			<data destination_type="f32" />
			<input>
				<port id="0" precision="FP16">
					<dim>1536</dim>
					<dim>1536</dim>
				</port>
			</input>
			<output>
				<port id="1" precision="FP32">
					<dim>1536</dim>
					<dim>1536</dim>
				</port>
			</output>
		</layer>
		<layer id="398" name="__module.model.layers.1.self_attn.q_proj/aten::linear/MatMul" type="MatMul" version="opset1">
			<data transpose_a="false" transpose_b="true" />
			<input>
				<port id="0" precision="FP32">
					<dim>-1</dim>
					<dim>-1</dim>
					<dim>1536</dim>
				</port>
				<port id="1" precision="FP32">
					<dim>1536</dim>
					<dim>1536</dim>
				</port>
			</input>
			<output>
				<port id="2" precision="FP32">
					<dim>-1</dim>
					<dim>-1</dim>
					<dim>1536</dim>
				</port>
			</output>
		</layer>
		<layer id="399" name="Constant_229735" type="Const" version="opset1">
			<data element_type="f32" shape="1, 1, 1536" offset="308697928" size="6144" />
			<output>
				<port id="0" precision="FP32">
					<dim>1</dim>
					<dim>1</dim>
					<dim>1536</dim>
				</port>
			</output>
		</layer>
		<layer id="400" name="__module.model.layers.1.self_attn.q_proj/aten::linear/Add" type="Add" version="opset1">
			<data auto_broadcast="numpy" />
			<input>
				<port id="0" precision="FP32">
					<dim>-1</dim>
					<dim>-1</dim>
					<dim>1536</dim>
				</port>
				<port id="1" precision="FP32">
					<dim>1</dim>
					<dim>1</dim>
					<dim>1536</dim>
				</port>
			</input>
			<output>
				<port id="2" precision="FP32" names="536,query_states.3">
					<dim>-1</dim>
					<dim>-1</dim>
					<dim>1536</dim>
				</port>
			</output>
		</layer>
		<layer id="401" name="Constant_238693" type="Const" version="opset1">
			<data element_type="i64" shape="4" offset="235073728" size="32" />
			<output>
				<port id="0" precision="I64">
					<dim>4</dim>
				</port>
			</output>
		</layer>
		<layer id="402" name="__module.model.layers.1.self_attn/aten::view/Reshape" type="Reshape" version="opset1">
			<data special_zero="true" />
			<input>
				<port id="0" precision="FP32">
					<dim>-1</dim>
					<dim>-1</dim>
					<dim>1536</dim>
				</port>
				<port id="1" precision="I64">
					<dim>4</dim>
				</port>
			</input>
			<output>
				<port id="2" precision="FP32" names="544">
					<dim>-1</dim>
					<dim>-1</dim>
					<dim>12</dim>
					<dim>128</dim>
				</port>
			</output>
		</layer>
		<layer id="403" name="__module.model.layers.1.self_attn/aten::transpose/ScatterElementsUpdate" type="Const" version="opset1">
			<data element_type="i32" shape="4" offset="235073760" size="16" />
			<output>
				<port id="0" precision="I32">
					<dim>4</dim>
				</port>
			</output>
		</layer>
		<layer id="404" name="__module.model.layers.1.self_attn/aten::transpose/Transpose" type="Transpose" version="opset1">
			<input>
				<port id="0" precision="FP32">
					<dim>-1</dim>
					<dim>-1</dim>
					<dim>12</dim>
					<dim>128</dim>
				</port>
				<port id="1" precision="I32">
					<dim>4</dim>
				</port>
			</input>
			<output>
				<port id="2" precision="FP32" names="545,q.3">
					<dim>-1</dim>
					<dim>12</dim>
					<dim>-1</dim>
					<dim>128</dim>
				</port>
			</output>
		</layer>
…
		<edge from-layer="6114" from-port="1" to-layer="6115" to-port="1" />
		<edge from-layer="6115" from-port="2" to-layer="6117" to-port="0" />
		<edge from-layer="6116" from-port="0" to-layer="6117" to-port="1" />
		<edge from-layer="6117" from-port="2" to-layer="6119" to-port="0" />
		<edge from-layer="6118" from-port="0" to-layer="6119" to-port="1" />
		<edge from-layer="6119" from-port="2" to-layer="6121" to-port="0" />
		<edge from-layer="6120" from-port="0" to-layer="6121" to-port="1" />
		<edge from-layer="6121" from-port="2" to-layer="6136" to-port="0" />
		<edge from-layer="6121" from-port="2" to-layer="6141" to-port="0" />
		<edge from-layer="6121" from-port="2" to-layer="6122" to-port="0" />
		<edge from-layer="6121" from-port="2" to-layer="6125" to-port="0" />
		<edge from-layer="6122" from-port="2" to-layer="6144" to-port="0" />
		<edge from-layer="6123" from-port="0" to-layer="6133" to-port="0" />
		<edge from-layer="6124" from-port="0" to-layer="6133" to-port="1" />
		<edge from-layer="6125" from-port="1" to-layer="6127" to-port="0" />
		<edge from-layer="6126" from-port="0" to-layer="6127" to-port="2" />
		<edge from-layer="6127" from-port="3" to-layer="6128" to-port="0" />
		<edge from-layer="6128" from-port="2" to-layer="6129" to-port="0" />
		<edge from-layer="6129" from-port="1" to-layer="6131" to-port="0" />
		<edge from-layer="6130" from-port="0" to-layer="6131" to-port="1" />
		<edge from-layer="6131" from-port="2" to-layer="6133" to-port="2" />
		<edge from-layer="6132" from-port="0" to-layer="6133" to-port="3" />
		<edge from-layer="6133" from-port="4" to-layer="6141" to-port="2" />
		<edge from-layer="6133" from-port="4" to-layer="6136" to-port="1" />
		<edge from-layer="6134" from-port="0" to-layer="6136" to-port="2" />
		<edge from-layer="6135" from-port="0" to-layer="6136" to-port="3" />
		<edge from-layer="6136" from-port="4" to-layer="6138" to-port="0" />
		<edge from-layer="6137" from-port="0" to-layer="6138" to-port="1" />
		<edge from-layer="6138" from-port="2" to-layer="6142" to-port="0" />
		<edge from-layer="6139" from-port="0" to-layer="6141" to-port="1" />
		<edge from-layer="6140" from-port="0" to-layer="6141" to-port="3" />
		<edge from-layer="6141" from-port="4" to-layer="6142" to-port="1" />
		<edge from-layer="6142" from-port="2" to-layer="6143" to-port="0" />
		<edge from-layer="6143" from-port="2" to-layer="6144" to-port="1" />
		<edge from-layer="6144" from-port="2" to-layer="6145" to-port="1" />
		<edge from-layer="6145" from-port="2" to-layer="6146" to-port="0" />
		<edge from-layer="6145" from-port="2" to-layer="6600" to-port="0" />
		<edge from-layer="6145" from-port="2" to-layer="6150" to-port="0" />
		<edge from-layer="6146" from-port="2" to-layer="6159" to-port="0" />
		<edge from-layer="6147" from-port="0" to-layer="6149" to-port="1" />
		<edge from-layer="6148" from-port="0" to-layer="6149" to-port="2" />
		<edge from-layer="6149" from-port="3" to-layer="6158" to-port="0" />
		<edge from-layer="6150" from-port="1" to-layer="6153" to-port="0" />
		<edge from-layer="6150" from-port="1" to-layer="6157" to-port="0" />
		<edge from-layer="6151" from-port="0" to-layer="6153" to-port="1" />
		<edge from-layer="6152" from-port="0" to-layer="6153" to-port="2" />
		<edge from-layer="6153" from-port="3" to-layer="6158" to-port="1" />
		<edge from-layer="6154" from-port="0" to-layer="6158" to-port="2" />
		<edge from-layer="6155" from-port="0" to-layer="6157" to-port="1" />
		<edge from-layer="6156" from-port="0" to-layer="6157" to-port="2" />
		<edge from-layer="6157" from-port="3" to-layer="6158" to-port="3" />
		<edge from-layer="6158" from-port="4" to-layer="6159" to-port="1" />
		<edge from-layer="6159" from-port="2" to-layer="6161" to-port="0" />
		<edge from-layer="6160" from-port="0" to-layer="6161" to-port="1" />
		<edge from-layer="6161" from-port="2" to-layer="6200" to-port="1" />
		<edge from-layer="6162" from-port="0" to-layer="6167" to-port="0" />
		<edge from-layer="6163" from-port="0" to-layer="6166" to-port="1" />
		<edge from-layer="6164" from-port="0" to-layer="6166" to-port="2" />
		<edge from-layer="6165" from-port="0" to-layer="6166" to-port="3" />
		<edge from-layer="6166" from-port="4" to-layer="6167" to-port="1" />
		<edge from-layer="6167" from-port="2" to-layer="6168" to-port="0" />
		<edge from-layer="6168" from-port="1" to-layer="6170" to-port="0" />
		<edge from-layer="6169" from-port="0" to-layer="6170" to-port="2" />
		<edge from-layer="6170" from-port="3" to-layer="6186" to-port="0" />
		<edge from-layer="6171" from-port="0" to-layer="6172" to-port="0" />
		<edge from-layer="6172" from-port="1" to-layer="6175" to-port="0" />
		<edge from-layer="6173" from-port="0" to-layer="6174" to-port="0" />
		<edge from-layer="6174" from-port="1" to-layer="6175" to-port="1" />
		<edge from-layer="6175" from-port="2" to-layer="6177" to-port="0" />
		<edge from-layer="6176" from-port="0" to-layer="6177" to-port="1" />
		<edge from-layer="6177" from-port="2" to-layer="6178" to-port="0" />
		<edge from-layer="6178" from-port="1" to-layer="6179" to-port="1" />
		<edge from-layer="6179" from-port="2" to-layer="6181" to-port="0" />
		<edge from-layer="6180" from-port="0" to-layer="6181" to-port="1" />
		<edge from-layer="6181" from-port="2" to-layer="6183" to-port="0" />
		<edge from-layer="6182" from-port="0" to-layer="6183" to-port="1" />
		<edge from-layer="6183" from-port="2" to-layer="6185" to-port="0" />
		<edge from-layer="6184" from-port="0" to-layer="6185" to-port="1" />
		<edge from-layer="6185" from-port="2" to-layer="6186" to-port="1" />
		<edge from-layer="6186" from-port="2" to-layer="6188" to-port="0" />
		<edge from-layer="6186" from-port="2" to-layer="6187" to-port="0" />
		<edge from-layer="6186" from-port="2" to-layer="6599" to-port="0" />
		<edge from-layer="6187" from-port="2" to-layer="6197" to-port="0" />
		<edge from-layer="6188" from-port="1" to-layer="6195" to-port="0" />
		<edge from-layer="6188" from-port="1" to-layer="6191" to-port="0" />
		<edge from-layer="6189" from-port="0" to-layer="6191" to-port="1" />
		<edge from-layer="6190" from-port="0" to-layer="6191" to-port="2" />
		<edge from-layer="6191" from-port="3" to-layer="6196" to-port="1" />
		<edge from-layer="6192" from-port="0" to-layer="6196" to-port="2" />
		<edge from-layer="6193" from-port="0" to-layer="6195" to-port="1" />
		<edge from-layer="6194" from-port="0" to-layer="6195" to-port="2" />
		<edge from-layer="6195" from-port="3" to-layer="6196" to-port="3" />
		<edge from-layer="6196" from-port="4" to-layer="6197" to-port="1" />
		<edge from-layer="6197" from-port="2" to-layer="6199" to-port="0" />
		<edge from-layer="6198" from-port="0" to-layer="6199" to-port="1" />
		<edge from-layer="6199" from-port="2" to-layer="6200" to-port="2" />
		<edge from-layer="6200" from-port="4" to-layer="6202" to-port="0" />
		<edge from-layer="6201" from-port="0" to-layer="6202" to-port="1" />
		<edge from-layer="6202" from-port="2" to-layer="6204" to-port="0" />
		<edge from-layer="6203" from-port="0" to-layer="6204" to-port="1" />
		<edge from-layer="6204" from-port="2" to-layer="6215" to-port="0" />
		<edge from-layer="6205" from-port="0" to-layer="6206" to-port="0" />
		<edge from-layer="6206" from-port="1" to-layer="6209" to-port="0" />
		<edge from-layer="6207" from-port="0" to-layer="6208" to-port="0" />
		<edge from-layer="6208" from-port="1" to-layer="6209" to-port="1" />
		<edge from-layer="6209" from-port="2" to-layer="6211" to-port="0" />
		<edge from-layer="6210" from-port="0" to-layer="6211" to-port="1" />
		<edge from-layer="6211" from-port="2" to-layer="6213" to-port="0" />
		<edge from-layer="6212" from-port="0" to-layer="6213" to-port="1" />
		<edge from-layer="6213" from-port="2" to-layer="6214" to-port="0" />
		<edge from-layer="6214" from-port="1" to-layer="6215" to-port="1" />
		<edge from-layer="6215" from-port="2" to-layer="6216" to-port="1" />
		<edge from-layer="6216" from-port="2" to-layer="6220" to-port="0" />
		<edge from-layer="6216" from-port="2" to-layer="6262" to-port="0" />
		<edge from-layer="6216" from-port="2" to-layer="6227" to-port="0" />
		<edge from-layer="6217" from-port="0" to-layer="6228" to-port="0" />
		<edge from-layer="6218" from-port="0" to-layer="6226" to-port="0" />
		<edge from-layer="6219" from-port="0" to-layer="6220" to-port="1" />
		<edge from-layer="6220" from-port="2" to-layer="6222" to-port="0" />
		<edge from-layer="6221" from-port="0" to-layer="6222" to-port="1" />
		<edge from-layer="6222" from-port="2" to-layer="6224" to-port="0" />
		<edge from-layer="6223" from-port="0" to-layer="6224" to-port="1" />
		<edge from-layer="6224" from-port="2" to-layer="6225" to-port="0" />
		<edge from-layer="6225" from-port="1" to-layer="6226" to-port="1" />
		<edge from-layer="6226" from-port="2" to-layer="6227" to-port="1" />
		<edge from-layer="6227" from-port="2" to-layer="6228" to-port="1" />
		<edge from-layer="6228" from-port="2" to-layer="6249" to-port="0" />
		<edge from-layer="6228" from-port="2" to-layer="6239" to-port="0" />
		<edge from-layer="6229" from-port="0" to-layer="6230" to-port="0" />
		<edge from-layer="6230" from-port="1" to-layer="6233" to-port="0" />
		<edge from-layer="6231" from-port="0" to-layer="6232" to-port="0" />
		<edge from-layer="6232" from-port="1" to-layer="6233" to-port="1" />
		<edge from-layer="6233" from-port="2" to-layer="6235" to-port="0" />
		<edge from-layer="6234" from-port="0" to-layer="6235" to-port="1" />
		<edge from-layer="6235" from-port="2" to-layer="6237" to-port="0" />
		<edge from-layer="6236" from-port="0" to-layer="6237" to-port="1" />
		<edge from-layer="6237" from-port="2" to-layer="6238" to-port="0" />
		<edge from-layer="6238" from-port="1" to-layer="6239" to-port="1" />
		<edge from-layer="6239" from-port="2" to-layer="6240" to-port="0" />
		<edge from-layer="6240" from-port="1" to-layer="6250" to-port="0" />
		<edge from-layer="6241" from-port="0" to-layer="6242" to-port="0" />
		<edge from-layer="6242" from-port="1" to-layer="6245" to-port="0" />
		<edge from-layer="6243" from-port="0" to-layer="6244" to-port="0" />
		<edge from-layer="6244" from-port="1" to-layer="6245" to-port="1" />
		<edge from-layer="6245" from-port="2" to-layer="6247" to-port="0" />
		<edge from-layer="6246" from-port="0" to-layer="6247" to-port="1" />
		<edge from-layer="6247" from-port="2" to-layer="6248" to-port="0" />
		<edge from-layer="6248" from-port="1" to-layer="6249" to-port="1" />
		<edge from-layer="6249" from-port="2" to-layer="6250" to-port="1" />
		<edge from-layer="6250" from-port="2" to-layer="6261" to-port="0" />
		<edge from-layer="6251" from-port="0" to-layer="6252" to-port="0" />
		<edge from-layer="6252" from-port="1" to-layer="6255" to-port="0" />
		<edge from-layer="6253" from-port="0" to-layer="6254" to-port="0" />
		<edge from-layer="6254" from-port="1" to-layer="6255" to-port="1" />
		<edge from-layer="6255" from-port="2" to-layer="6257" to-port="0" />
		<edge from-layer="6256" from-port="0" to-layer="6257" to-port="1" />
		<edge from-layer="6257" from-port="2" to-layer="6259" to-port="0" />
		<edge from-layer="6258" from-port="0" to-layer="6259" to-port="1" />
		<edge from-layer="6259" from-port="2" to-layer="6260" to-port="0" />
		<edge from-layer="6260" from-port="1" to-layer="6261" to-port="1" />
		<edge from-layer="6261" from-port="2" to-layer="6262" to-port="1" />
		<edge from-layer="6262" from-port="2" to-layer="6273" to-port="0" />
		<edge from-layer="6262" from-port="2" to-layer="6266" to-port="0" />
		<edge from-layer="6262" from-port="2" to-layer="6452" to-port="0" />
		<edge from-layer="6263" from-port="0" to-layer="6274" to-port="0" />
		<edge from-layer="6264" from-port="0" to-layer="6272" to-port="0" />
		<edge from-layer="6265" from-port="0" to-layer="6266" to-port="1" />
		<edge from-layer="6266" from-port="2" to-layer="6268" to-port="0" />
		<edge from-layer="6267" from-port="0" to-layer="6268" to-port="1" />
		<edge from-layer="6268" from-port="2" to-layer="6270" to-port="0" />
		<edge from-layer="6269" from-port="0" to-layer="6270" to-port="1" />
		<edge from-layer="6270" from-port="2" to-layer="6271" to-port="0" />
		<edge from-layer="6271" from-port="1" to-layer="6272" to-port="1" />
		<edge from-layer="6272" from-port="2" to-layer="6273" to-port="1" />
		<edge from-layer="6273" from-port="2" to-layer="6274" to-port="1" />
		<edge from-layer="6274" from-port="2" to-layer="6349" to-port="0" />
		<edge from-layer="6274" from-port="2" to-layer="6415" to-port="0" />
		<edge from-layer="6274" from-port="2" to-layer="6283" to-port="0" />
		<edge from-layer="6275" from-port="0" to-layer="6276" to-port="0" />
		<edge from-layer="6276" from-port="1" to-layer="6279" to-port="0" />
		<edge from-layer="6277" from-port="0" to-layer="6278" to-port="0" />
		<edge from-layer="6278" from-port="1" to-layer="6279" to-port="1" />
		<edge from-layer="6279" from-port="2" to-layer="6281" to-port="0" />
		<edge from-layer="6280" from-port="0" to-layer="6281" to-port="1" />
		<edge from-layer="6281" from-port="2" to-layer="6282" to-port="0" />
		<edge from-layer="6282" from-port="1" to-layer="6283" to-port="1" />
		<edge from-layer="6283" from-port="2" to-layer="6285" to-port="0" />
		<edge from-layer="6284" from-port="0" to-layer="6285" to-port="1" />
		<edge from-layer="6285" from-port="2" to-layer="6287" to-port="0" />
		<edge from-layer="6286" from-port="0" to-layer="6287" to-port="1" />
		<edge from-layer="6287" from-port="2" to-layer="6289" to-port="0" />
		<edge from-layer="6288" from-port="0" to-layer="6289" to-port="1" />
		<edge from-layer="6289" from-port="2" to-layer="6325" to-port="0" />
		<edge from-layer="6289" from-port="2" to-layer="6330" to-port="0" />
		<edge from-layer="6289" from-port="2" to-layer="6311" to-port="0" />
		<edge from-layer="6289" from-port="2" to-layer="6314" to-port="0" />
		<edge from-layer="6290" from-port="0" to-layer="6307" to-port="0" />
		<edge from-layer="6291" from-port="0" to-layer="6307" to-port="1" />
		<edge from-layer="6292" from-port="0" to-layer="6297" to-port="0" />
		<edge from-layer="6293" from-port="0" to-layer="6296" to-port="1" />
		<edge from-layer="6294" from-port="0" to-layer="6296" to-port="2" />
		<edge from-layer="6295" from-port="0" to-layer="6296" to-port="3" />
		<edge from-layer="6296" from-port="4" to-layer="6297" to-port="1" />
		<edge from-layer="6297" from-port="2" to-layer="6298" to-port="0" />
		<edge from-layer="6298" from-port="1" to-layer="6300" to-port="0" />
		<edge from-layer="6299" from-port="0" to-layer="6300" to-port="2" />
		<edge from-layer="6300" from-port="3" to-layer="6301" to-port="0" />
		<edge from-layer="6300" from-port="3" to-layer="6379" to-port="0" />
		<edge from-layer="6301" from-port="1" to-layer="6304" to-port="0" />
		<edge from-layer="6301" from-port="1" to-layer="6383" to-port="0" />
		<edge from-layer="6302" from-port="0" to-layer="6304" to-port="1" />
		<edge from-layer="6303" from-port="0" to-layer="6304" to-port="2" />
		<edge from-layer="6304" from-port="3" to-layer="6305" to-port="1" />
		<edge from-layer="6305" from-port="2" to-layer="6335" to-port="2" />
		<edge from-layer="6305" from-port="2" to-layer="6307" to-port="2" />
		<edge from-layer="6306" from-port="0" to-layer="6307" to-port="3" />
		<edge from-layer="6307" from-port="4" to-layer="6309" to-port="0" />
		<edge from-layer="6308" from-port="0" to-layer="6309" to-port="2" />
		<edge from-layer="6309" from-port="3" to-layer="6310" to-port="0" />
		<edge from-layer="6310" from-port="2" to-layer="6356" to-port="1" />
		<edge from-layer="6310" from-port="2" to-layer="6311" to-port="1" />
		<edge from-layer="6311" from-port="2" to-layer="6340" to-port="0" />
		<edge from-layer="6312" from-port="0" to-layer="6322" to-port="0" />
		<edge from-layer="6313" from-port="0" to-layer="6322" to-port="1" />
		<edge from-layer="6314" from-port="1" to-layer="6316" to-port="0" />
		<edge from-layer="6315" from-port="0" to-layer="6316" to-port="2" />
		<edge from-layer="6316" from-port="3" to-layer="6317" to-port="0" />
		<edge from-layer="6317" from-port="2" to-layer="6318" to-port="0" />
		<edge from-layer="6318" from-port="1" to-layer="6320" to-port="0" />
		<edge from-layer="6319" from-port="0" to-layer="6320" to-port="1" />
		<edge from-layer="6320" from-port="2" to-layer="6322" to-port="2" />
		<edge from-layer="6321" from-port="0" to-layer="6322" to-port="3" />
		<edge from-layer="6322" from-port="4" to-layer="6330" to-port="2" />
		<edge from-layer="6322" from-port="4" to-layer="6325" to-port="1" />
		<edge from-layer="6323" from-port="0" to-layer="6325" to-port="2" />
		<edge from-layer="6324" from-port="0" to-layer="6325" to-port="3" />
		<edge from-layer="6325" from-port="4" to-layer="6327" to-port="0" />
		<edge from-layer="6326" from-port="0" to-layer="6327" to-port="1" />
		<edge from-layer="6327" from-port="2" to-layer="6331" to-port="0" />
		<edge from-layer="6328" from-port="0" to-layer="6330" to-port="1" />
		<edge from-layer="6329" from-port="0" to-layer="6330" to-port="3" />
		<edge from-layer="6330" from-port="4" to-layer="6331" to-port="1" />
		<edge from-layer="6331" from-port="2" to-layer="6339" to-port="0" />
		<edge from-layer="6332" from-port="0" to-layer="6335" to-port="0" />
		<edge from-layer="6333" from-port="0" to-layer="6335" to-port="1" />
		<edge from-layer="6334" from-port="0" to-layer="6335" to-port="3" />
		<edge from-layer="6335" from-port="4" to-layer="6337" to-port="0" />
		<edge from-layer="6336" from-port="0" to-layer="6337" to-port="2" />
		<edge from-layer="6337" from-port="3" to-layer="6338" to-port="0" />
		<edge from-layer="6338" from-port="2" to-layer="6339" to-port="1" />
		<edge from-layer="6338" from-port="2" to-layer="6377" to-port="1" />
		<edge from-layer="6339" from-port="2" to-layer="6340" to-port="1" />
		<edge from-layer="6340" from-port="2" to-layer="6436" to-port="0" />
		<edge from-layer="6341" from-port="0" to-layer="6342" to-port="0" />
		<edge from-layer="6342" from-port="1" to-layer="6345" to-port="0" />
		<edge from-layer="6343" from-port="0" to-layer="6344" to-port="0" />
		<edge from-layer="6344" from-port="1" to-layer="6345" to-port="1" />
		<edge from-layer="6345" from-port="2" to-layer="6347" to-port="0" />
		<edge from-layer="6346" from-port="0" to-layer="6347" to-port="1" />
		<edge from-layer="6347" from-port="2" to-layer="6348" to-port="0" />
		<edge from-layer="6348" from-port="1" to-layer="6349" to-port="1" />
		<edge from-layer="6349" from-port="2" to-layer="6351" to-port="0" />
		<edge from-layer="6350" from-port="0" to-layer="6351" to-port="1" />
		<edge from-layer="6351" from-port="2" to-layer="6353" to-port="0" />
		<edge from-layer="6352" from-port="0" to-layer="6353" to-port="1" />
		<edge from-layer="6353" from-port="2" to-layer="6355" to-port="0" />
		<edge from-layer="6354" from-port="0" to-layer="6355" to-port="1" />
		<edge from-layer="6355" from-port="2" to-layer="6356" to-port="0" />
		<edge from-layer="6355" from-port="2" to-layer="6370" to-port="0" />
		<edge from-layer="6355" from-port="2" to-layer="6375" to-port="0" />
		<edge from-layer="6355" from-port="2" to-layer="6359" to-port="0" />
		<edge from-layer="6356" from-port="2" to-layer="6378" to-port="0" />
		<edge from-layer="6357" from-port="0" to-layer="6367" to-port="0" />
		<edge from-layer="6358" from-port="0" to-layer="6367" to-port="1" />
		<edge from-layer="6359" from-port="1" to-layer="6361" to-port="0" />
		<edge from-layer="6360" from-port="0" to-layer="6361" to-port="2" />
		<edge from-layer="6361" from-port="3" to-layer="6362" to-port="0" />
		<edge from-layer="6362" from-port="2" to-layer="6363" to-port="0" />
		<edge from-layer="6363" from-port="1" to-layer="6365" to-port="0" />
		<edge from-layer="6364" from-port="0" to-layer="6365" to-port="1" />
		<edge from-layer="6365" from-port="2" to-layer="6367" to-port="2" />
		<edge from-layer="6366" from-port="0" to-layer="6367" to-port="3" />
		<edge from-layer="6367" from-port="4" to-layer="6370" to-port="1" />
		<edge from-layer="6367" from-port="4" to-layer="6375" to-port="2" />
		<edge from-layer="6368" from-port="0" to-layer="6370" to-port="2" />
		<edge from-layer="6369" from-port="0" to-layer="6370" to-port="3" />
		<edge from-layer="6370" from-port="4" to-layer="6372" to-port="0" />
		<edge from-layer="6371" from-port="0" to-layer="6372" to-port="1" />
		<edge from-layer="6372" from-port="2" to-layer="6376" to-port="0" />
		<edge from-layer="6373" from-port="0" to-layer="6375" to-port="1" />
		<edge from-layer="6374" from-port="0" to-layer="6375" to-port="3" />
		<edge from-layer="6375" from-port="4" to-layer="6376" to-port="1" />
		<edge from-layer="6376" from-port="2" to-layer="6377" to-port="0" />
		<edge from-layer="6377" from-port="2" to-layer="6378" to-port="1" />
		<edge from-layer="6378" from-port="2" to-layer="6379" to-port="1" />
		<edge from-layer="6379" from-port="2" to-layer="6598" to-port="0" />
		<edge from-layer="6379" from-port="2" to-layer="6384" to-port="0" />
		<edge from-layer="6379" from-port="2" to-layer="6380" to-port="0" />
		<edge from-layer="6380" from-port="2" to-layer="6393" to-port="0" />
		<edge from-layer="6381" from-port="0" to-layer="6383" to-port="1" />
		<edge from-layer="6382" from-port="0" to-layer="6383" to-port="2" />
		<edge from-layer="6383" from-port="3" to-layer="6392" to-port="0" />
		<edge from-layer="6384" from-port="1" to-layer="6391" to-port="0" />
		<edge from-layer="6384" from-port="1" to-layer="6387" to-port="0" />
		<edge from-layer="6385" from-port="0" to-layer="6387" to-port="1" />
		<edge from-layer="6386" from-port="0" to-layer="6387" to-port="2" />
		<edge from-layer="6387" from-port="3" to-layer="6392" to-port="1" />
		<edge from-layer="6388" from-port="0" to-layer="6392" to-port="2" />
		<edge from-layer="6389" from-port="0" to-layer="6391" to-port="1" />
		<edge from-layer="6390" from-port="0" to-layer="6391" to-port="2" />
		<edge from-layer="6391" from-port="3" to-layer="6392" to-port="3" />
		<edge from-layer="6392" from-port="4" to-layer="6393" to-port="1" />
		<edge from-layer="6393" from-port="2" to-layer="6395" to-port="0" />
		<edge from-layer="6394" from-port="0" to-layer="6395" to-port="1" />
		<edge from-layer="6395" from-port="2" to-layer="6436" to-port="1" />
		<edge from-layer="6396" from-port="0" to-layer="6401" to-port="0" />
		<edge from-layer="6397" from-port="0" to-layer="6400" to-port="1" />
		<edge from-layer="6398" from-port="0" to-layer="6400" to-port="2" />
		<edge from-layer="6399" from-port="0" to-layer="6400" to-port="3" />
		<edge from-layer="6400" from-port="4" to-layer="6401" to-port="1" />
		<edge from-layer="6401" from-port="2" to-layer="6402" to-port="0" />
		<edge from-layer="6402" from-port="1" to-layer="6404" to-port="0" />
		<edge from-layer="6403" from-port="0" to-layer="6404" to-port="2" />
		<edge from-layer="6404" from-port="3" to-layer="6422" to-port="0" />
		<edge from-layer="6405" from-port="0" to-layer="6406" to-port="0" />
		<edge from-layer="6406" from-port="1" to-layer="6409" to-port="0" />
		<edge from-layer="6407" from-port="0" to-layer="6408" to-port="0" />
		<edge from-layer="6408" from-port="1" to-layer="6409" to-port="1" />
		<edge from-layer="6409" from-port="2" to-layer="6411" to-port="0" />
		<edge from-layer="6410" from-port="0" to-layer="6411" to-port="1" />
		<edge from-layer="6411" from-port="2" to-layer="6413" to-port="0" />
		<edge from-layer="6412" from-port="0" to-layer="6413" to-port="1" />
		<edge from-layer="6413" from-port="2" to-layer="6414" to-port="0" />
		<edge from-layer="6414" from-port="1" to-layer="6415" to-port="1" />
		<edge from-layer="6415" from-port="2" to-layer="6417" to-port="0" />
		<edge from-layer="6416" from-port="0" to-layer="6417" to-port="1" />
		<edge from-layer="6417" from-port="2" to-layer="6419" to-port="0" />
		<edge from-layer="6418" from-port="0" to-layer="6419" to-port="1" />
		<edge from-layer="6419" from-port="2" to-layer="6421" to-port="0" />
		<edge from-layer="6420" from-port="0" to-layer="6421" to-port="1" />
		<edge from-layer="6421" from-port="2" to-layer="6422" to-port="1" />
		<edge from-layer="6422" from-port="2" to-layer="6423" to-port="0" />
		<edge from-layer="6422" from-port="2" to-layer="6597" to-port="0" />
		<edge from-layer="6422" from-port="2" to-layer="6424" to-port="0" />
		<edge from-layer="6423" from-port="2" to-layer="6433" to-port="0" />
		<edge from-layer="6424" from-port="1" to-layer="6427" to-port="0" />
		<edge from-layer="6424" from-port="1" to-layer="6431" to-port="0" />
		<edge from-layer="6425" from-port="0" to-layer="6427" to-port="1" />
		<edge from-layer="6426" from-port="0" to-layer="6427" to-port="2" />
		<edge from-layer="6427" from-port="3" to-layer="6432" to-port="1" />
		<edge from-layer="6428" from-port="0" to-layer="6432" to-port="2" />
		<edge from-layer="6429" from-port="0" to-layer="6431" to-port="1" />
		<edge from-layer="6430" from-port="0" to-layer="6431" to-port="2" />
		<edge from-layer="6431" from-port="3" to-layer="6432" to-port="3" />
		<edge from-layer="6432" from-port="4" to-layer="6433" to-port="1" />
		<edge from-layer="6433" from-port="2" to-layer="6435" to-port="0" />
		<edge from-layer="6434" from-port="0" to-layer="6435" to-port="1" />
		<edge from-layer="6435" from-port="2" to-layer="6436" to-port="2" />
		<edge from-layer="6436" from-port="4" to-layer="6438" to-port="0" />
		<edge from-layer="6437" from-port="0" to-layer="6438" to-port="1" />
		<edge from-layer="6438" from-port="2" to-layer="6440" to-port="0" />
		<edge from-layer="6439" from-port="0" to-layer="6440" to-port="1" />
		<edge from-layer="6440" from-port="2" to-layer="6451" to-port="0" />
		<edge from-layer="6441" from-port="0" to-layer="6442" to-port="0" />
		<edge from-layer="6442" from-port="1" to-layer="6445" to-port="0" />
		<edge from-layer="6443" from-port="0" to-layer="6444" to-port="0" />
		<edge from-layer="6444" from-port="1" to-layer="6445" to-port="1" />
		<edge from-layer="6445" from-port="2" to-layer="6447" to-port="0" />
		<edge from-layer="6446" from-port="0" to-layer="6447" to-port="1" />
		<edge from-layer="6447" from-port="2" to-layer="6449" to-port="0" />
		<edge from-layer="6448" from-port="0" to-layer="6449" to-port="1" />
		<edge from-layer="6449" from-port="2" to-layer="6450" to-port="0" />
		<edge from-layer="6450" from-port="1" to-layer="6451" to-port="1" />
		<edge from-layer="6451" from-port="2" to-layer="6452" to-port="1" />
		<edge from-layer="6452" from-port="2" to-layer="6463" to-port="0" />
		<edge from-layer="6452" from-port="2" to-layer="6456" to-port="0" />
		<edge from-layer="6452" from-port="2" to-layer="6500" to-port="0" />
		<edge from-layer="6453" from-port="0" to-layer="6464" to-port="0" />
		<edge from-layer="6454" from-port="0" to-layer="6462" to-port="0" />
		<edge from-layer="6455" from-port="0" to-layer="6456" to-port="1" />
		<edge from-layer="6456" from-port="2" to-layer="6458" to-port="0" />
		<edge from-layer="6457" from-port="0" to-layer="6458" to-port="1" />
		<edge from-layer="6458" from-port="2" to-layer="6460" to-port="0" />
		<edge from-layer="6459" from-port="0" to-layer="6460" to-port="1" />
		<edge from-layer="6460" from-port="2" to-layer="6461" to-port="0" />
		<edge from-layer="6461" from-port="1" to-layer="6462" to-port="1" />
		<edge from-layer="6462" from-port="2" to-layer="6463" to-port="1" />
		<edge from-layer="6463" from-port="2" to-layer="6464" to-port="1" />
		<edge from-layer="6464" from-port="2" to-layer="6487" to-port="0" />
		<edge from-layer="6464" from-port="2" to-layer="6475" to-port="0" />
		<edge from-layer="6465" from-port="0" to-layer="6466" to-port="0" />
		<edge from-layer="6466" from-port="1" to-layer="6469" to-port="0" />
		<edge from-layer="6467" from-port="0" to-layer="6468" to-port="0" />
		<edge from-layer="6468" from-port="1" to-layer="6469" to-port="1" />
		<edge from-layer="6469" from-port="2" to-layer="6471" to-port="0" />
		<edge from-layer="6470" from-port="0" to-layer="6471" to-port="1" />
		<edge from-layer="6471" from-port="2" to-layer="6473" to-port="0" />
		<edge from-layer="6472" from-port="0" to-layer="6473" to-port="1" />
		<edge from-layer="6473" from-port="2" to-layer="6474" to-port="0" />
		<edge from-layer="6474" from-port="1" to-layer="6475" to-port="1" />
		<edge from-layer="6475" from-port="2" to-layer="6476" to-port="0" />
		<edge from-layer="6476" from-port="1" to-layer="6488" to-port="0" />
		<edge from-layer="6477" from-port="0" to-layer="6478" to-port="0" />
		<edge from-layer="6478" from-port="1" to-layer="6481" to-port="0" />
		<edge from-layer="6479" from-port="0" to-layer="6480" to-port="0" />
		<edge from-layer="6480" from-port="1" to-layer="6481" to-port="1" />
		<edge from-layer="6481" from-port="2" to-layer="6483" to-port="0" />
		<edge from-layer="6482" from-port="0" to-layer="6483" to-port="1" />
		<edge from-layer="6483" from-port="2" to-layer="6485" to-port="0" />
		<edge from-layer="6484" from-port="0" to-layer="6485" to-port="1" />
		<edge from-layer="6485" from-port="2" to-layer="6486" to-port="0" />
		<edge from-layer="6486" from-port="1" to-layer="6487" to-port="1" />
		<edge from-layer="6487" from-port="2" to-layer="6488" to-port="1" />
		<edge from-layer="6488" from-port="2" to-layer="6499" to-port="0" />
		<edge from-layer="6489" from-port="0" to-layer="6490" to-port="0" />
		<edge from-layer="6490" from-port="1" to-layer="6493" to-port="0" />
		<edge from-layer="6491" from-port="0" to-layer="6492" to-port="0" />
		<edge from-layer="6492" from-port="1" to-layer="6493" to-port="1" />
		<edge from-layer="6493" from-port="2" to-layer="6495" to-port="0" />
		<edge from-layer="6494" from-port="0" to-layer="6495" to-port="1" />
		<edge from-layer="6495" from-port="2" to-layer="6497" to-port="0" />
		<edge from-layer="6496" from-port="0" to-layer="6497" to-port="1" />
		<edge from-layer="6497" from-port="2" to-layer="6498" to-port="0" />
		<edge from-layer="6498" from-port="1" to-layer="6499" to-port="1" />
		<edge from-layer="6499" from-port="2" to-layer="6500" to-port="1" />
		<edge from-layer="6500" from-port="2" to-layer="6503" to-port="0" />
		<edge from-layer="6500" from-port="2" to-layer="6510" to-port="0" />
		<edge from-layer="6500" from-port="2" to-layer="6721" to-port="0" />
		<edge from-layer="6501" from-port="0" to-layer="6509" to-port="0" />
		<edge from-layer="6502" from-port="0" to-layer="6503" to-port="1" />
		<edge from-layer="6503" from-port="2" to-layer="6505" to-port="0" />
		<edge from-layer="6504" from-port="0" to-layer="6505" to-port="1" />
		<edge from-layer="6505" from-port="2" to-layer="6507" to-port="0" />
		<edge from-layer="6506" from-port="0" to-layer="6507" to-port="1" />
		<edge from-layer="6507" from-port="2" to-layer="6508" to-port="0" />
		<edge from-layer="6508" from-port="1" to-layer="6509" to-port="1" />
		<edge from-layer="6509" from-port="2" to-layer="6510" to-port="1" />
		<edge from-layer="6510" from-port="2" to-layer="6511" to-port="1" />
		<edge from-layer="6511" from-port="2" to-layer="6646" to-port="0" />
		<edge from-layer="6511" from-port="2" to-layer="6546" to-port="0" />
		<edge from-layer="6511" from-port="2" to-layer="6520" to-port="0" />
		<edge from-layer="6512" from-port="0" to-layer="6513" to-port="0" />
		<edge from-layer="6513" from-port="1" to-layer="6516" to-port="0" />
		<edge from-layer="6514" from-port="0" to-layer="6515" to-port="0" />
		<edge from-layer="6515" from-port="1" to-layer="6516" to-port="1" />
		<edge from-layer="6516" from-port="2" to-layer="6518" to-port="0" />
		<edge from-layer="6517" from-port="0" to-layer="6518" to-port="1" />
		<edge from-layer="6518" from-port="2" to-layer="6519" to-port="0" />
		<edge from-layer="6519" from-port="1" to-layer="6520" to-port="1" />
		<edge from-layer="6520" from-port="2" to-layer="6522" to-port="0" />
		<edge from-layer="6521" from-port="0" to-layer="6522" to-port="1" />
		<edge from-layer="6522" from-port="2" to-layer="6524" to-port="0" />
		<edge from-layer="6523" from-port="0" to-layer="6524" to-port="1" />
		<edge from-layer="6524" from-port="2" to-layer="6526" to-port="0" />
		<edge from-layer="6525" from-port="0" to-layer="6526" to-port="1" />
		<edge from-layer="6526" from-port="2" to-layer="6527" to-port="1" />
		<edge from-layer="6527" from-port="2" to-layer="6692" to-port="0" />
		<edge from-layer="6527" from-port="2" to-layer="6528" to-port="0" />
		<edge from-layer="6527" from-port="2" to-layer="6693" to-port="0" />
		<edge from-layer="6529" from-port="0" to-layer="6534" to-port="0" />
		<edge from-layer="6530" from-port="0" to-layer="6533" to-port="1" />
		<edge from-layer="6531" from-port="0" to-layer="6533" to-port="2" />
		<edge from-layer="6532" from-port="0" to-layer="6533" to-port="3" />
		<edge from-layer="6533" from-port="4" to-layer="6534" to-port="1" />
		<edge from-layer="6534" from-port="2" to-layer="6535" to-port="0" />
		<edge from-layer="6535" from-port="1" to-layer="6537" to-port="0" />
		<edge from-layer="6536" from-port="0" to-layer="6537" to-port="2" />
		<edge from-layer="6537" from-port="3" to-layer="6555" to-port="0" />
		<edge from-layer="6537" from-port="3" to-layer="6595" to-port="0" />
		<edge from-layer="6538" from-port="0" to-layer="6539" to-port="0" />
		<edge from-layer="6539" from-port="1" to-layer="6542" to-port="0" />
		<edge from-layer="6540" from-port="0" to-layer="6541" to-port="0" />
		<edge from-layer="6541" from-port="1" to-layer="6542" to-port="1" />
		<edge from-layer="6542" from-port="2" to-layer="6544" to-port="0" />
		<edge from-layer="6543" from-port="0" to-layer="6544" to-port="1" />
		<edge from-layer="6544" from-port="2" to-layer="6545" to-port="0" />
		<edge from-layer="6545" from-port="1" to-layer="6546" to-port="1" />
		<edge from-layer="6546" from-port="2" to-layer="6548" to-port="0" />
		<edge from-layer="6547" from-port="0" to-layer="6548" to-port="1" />
		<edge from-layer="6548" from-port="2" to-layer="6550" to-port="0" />
		<edge from-layer="6549" from-port="0" to-layer="6550" to-port="1" />
		<edge from-layer="6550" from-port="2" to-layer="6552" to-port="0" />
		<edge from-layer="6551" from-port="0" to-layer="6552" to-port="1" />
		<edge from-layer="6552" from-port="2" to-layer="6584" to-port="0" />
		<edge from-layer="6552" from-port="2" to-layer="6565" to-port="0" />
		<edge from-layer="6552" from-port="2" to-layer="6568" to-port="0" />
		<edge from-layer="6552" from-port="2" to-layer="6579" to-port="0" />
		<edge from-layer="6553" from-port="0" to-layer="6561" to-port="0" />
		<edge from-layer="6554" from-port="0" to-layer="6561" to-port="1" />
		<edge from-layer="6555" from-port="1" to-layer="6558" to-port="0" />
		<edge from-layer="6555" from-port="1" to-layer="6679" to-port="0" />
		<edge from-layer="6556" from-port="0" to-layer="6558" to-port="1" />
		<edge from-layer="6557" from-port="0" to-layer="6558" to-port="2" />
		<edge from-layer="6558" from-port="3" to-layer="6559" to-port="1" />
		<edge from-layer="6559" from-port="2" to-layer="6561" to-port="2" />
		<edge from-layer="6559" from-port="2" to-layer="6589" to-port="2" />
		<edge from-layer="6560" from-port="0" to-layer="6561" to-port="3" />
		<edge from-layer="6561" from-port="4" to-layer="6563" to-port="0" />
		<edge from-layer="6562" from-port="0" to-layer="6563" to-port="2" />
		<edge from-layer="6563" from-port="3" to-layer="6564" to-port="0" />
		<edge from-layer="6564" from-port="2" to-layer="6565" to-port="1" />
		<edge from-layer="6564" from-port="2" to-layer="6653" to-port="1" />
		<edge from-layer="6565" from-port="2" to-layer="6594" to-port="0" />
		<edge from-layer="6566" from-port="0" to-layer="6576" to-port="0" />
		<edge from-layer="6567" from-port="0" to-layer="6576" to-port="1" />
		<edge from-layer="6568" from-port="1" to-layer="6570" to-port="0" />
		<edge from-layer="6569" from-port="0" to-layer="6570" to-port="2" />
		<edge from-layer="6570" from-port="3" to-layer="6571" to-port="0" />
		<edge from-layer="6571" from-port="2" to-layer="6572" to-port="0" />
		<edge from-layer="6572" from-port="1" to-layer="6574" to-port="0" />
		<edge from-layer="6573" from-port="0" to-layer="6574" to-port="1" />
		<edge from-layer="6574" from-port="2" to-layer="6576" to-port="2" />
		<edge from-layer="6575" from-port="0" to-layer="6576" to-port="3" />
		<edge from-layer="6576" from-port="4" to-layer="6579" to-port="1" />
		<edge from-layer="6576" from-port="4" to-layer="6584" to-port="2" />
		<edge from-layer="6577" from-port="0" to-layer="6579" to-port="2" />
		<edge from-layer="6578" from-port="0" to-layer="6579" to-port="3" />
		<edge from-layer="6579" from-port="4" to-layer="6581" to-port="0" />
		<edge from-layer="6580" from-port="0" to-layer="6581" to-port="1" />
		<edge from-layer="6581" from-port="2" to-layer="6585" to-port="0" />
		<edge from-layer="6582" from-port="0" to-layer="6584" to-port="1" />
		<edge from-layer="6583" from-port="0" to-layer="6584" to-port="3" />
		<edge from-layer="6584" from-port="4" to-layer="6585" to-port="1" />
		<edge from-layer="6585" from-port="2" to-layer="6593" to-port="0" />
		<edge from-layer="6586" from-port="0" to-layer="6589" to-port="0" />
		<edge from-layer="6587" from-port="0" to-layer="6589" to-port="1" />
		<edge from-layer="6588" from-port="0" to-layer="6589" to-port="3" />
		<edge from-layer="6589" from-port="4" to-layer="6591" to-port="0" />
		<edge from-layer="6590" from-port="0" to-layer="6591" to-port="2" />
		<edge from-layer="6591" from-port="3" to-layer="6592" to-port="0" />
		<edge from-layer="6592" from-port="2" to-layer="6674" to-port="1" />
		<edge from-layer="6592" from-port="2" to-layer="6593" to-port="1" />
		<edge from-layer="6593" from-port="2" to-layer="6594" to-port="1" />
		<edge from-layer="6594" from-port="2" to-layer="6595" to-port="1" />
		<edge from-layer="6595" from-port="2" to-layer="6596" to-port="0" />
		<edge from-layer="6595" from-port="2" to-layer="6676" to-port="0" />
		<edge from-layer="6595" from-port="2" to-layer="6680" to-port="0" />
		<edge from-layer="6637" from-port="0" to-layer="6780" to-port="0" />
		<edge from-layer="6638" from-port="0" to-layer="6639" to-port="0" />
		<edge from-layer="6639" from-port="1" to-layer="6642" to-port="0" />
		<edge from-layer="6640" from-port="0" to-layer="6641" to-port="0" />
		<edge from-layer="6641" from-port="1" to-layer="6642" to-port="1" />
		<edge from-layer="6642" from-port="2" to-layer="6644" to-port="0" />
		<edge from-layer="6643" from-port="0" to-layer="6644" to-port="1" />
		<edge from-layer="6644" from-port="2" to-layer="6645" to-port="0" />
		<edge from-layer="6645" from-port="1" to-layer="6646" to-port="1" />
		<edge from-layer="6646" from-port="2" to-layer="6648" to-port="0" />
		<edge from-layer="6647" from-port="0" to-layer="6648" to-port="1" />
		<edge from-layer="6648" from-port="2" to-layer="6650" to-port="0" />
		<edge from-layer="6649" from-port="0" to-layer="6650" to-port="1" />
		<edge from-layer="6650" from-port="2" to-layer="6652" to-port="0" />
		<edge from-layer="6651" from-port="0" to-layer="6652" to-port="1" />
		<edge from-layer="6652" from-port="2" to-layer="6672" to-port="0" />
		<edge from-layer="6652" from-port="2" to-layer="6656" to-port="0" />
		<edge from-layer="6652" from-port="2" to-layer="6653" to-port="0" />
		<edge from-layer="6652" from-port="2" to-layer="6667" to-port="0" />
		<edge from-layer="6653" from-port="2" to-layer="6675" to-port="0" />
		<edge from-layer="6654" from-port="0" to-layer="6664" to-port="0" />
		<edge from-layer="6655" from-port="0" to-layer="6664" to-port="1" />
		<edge from-layer="6656" from-port="1" to-layer="6658" to-port="0" />
		<edge from-layer="6657" from-port="0" to-layer="6658" to-port="2" />
		<edge from-layer="6658" from-port="3" to-layer="6659" to-port="0" />
		<edge from-layer="6659" from-port="2" to-layer="6660" to-port="0" />
		<edge from-layer="6660" from-port="1" to-layer="6662" to-port="0" />
		<edge from-layer="6661" from-port="0" to-layer="6662" to-port="1" />
		<edge from-layer="6662" from-port="2" to-layer="6664" to-port="2" />
		<edge from-layer="6663" from-port="0" to-layer="6664" to-port="3" />
		<edge from-layer="6664" from-port="4" to-layer="6667" to-port="1" />
		<edge from-layer="6664" from-port="4" to-layer="6672" to-port="2" />
		<edge from-layer="6665" from-port="0" to-layer="6667" to-port="2" />
		<edge from-layer="6666" from-port="0" to-layer="6667" to-port="3" />
		<edge from-layer="6667" from-port="4" to-layer="6669" to-port="0" />
		<edge from-layer="6668" from-port="0" to-layer="6669" to-port="1" />
		<edge from-layer="6669" from-port="2" to-layer="6673" to-port="0" />
		<edge from-layer="6670" from-port="0" to-layer="6672" to-port="1" />
		<edge from-layer="6671" from-port="0" to-layer="6672" to-port="3" />
		<edge from-layer="6672" from-port="4" to-layer="6673" to-port="1" />
		<edge from-layer="6673" from-port="2" to-layer="6674" to-port="0" />
		<edge from-layer="6674" from-port="2" to-layer="6675" to-port="1" />
		<edge from-layer="6675" from-port="2" to-layer="6705" to-port="0" />
		<edge from-layer="6676" from-port="2" to-layer="6689" to-port="0" />
		<edge from-layer="6677" from-port="0" to-layer="6679" to-port="1" />
		<edge from-layer="6678" from-port="0" to-layer="6679" to-port="2" />
		<edge from-layer="6679" from-port="3" to-layer="6688" to-port="0" />
		<edge from-layer="6680" from-port="1" to-layer="6683" to-port="0" />
		<edge from-layer="6680" from-port="1" to-layer="6687" to-port="0" />
		<edge from-layer="6681" from-port="0" to-layer="6683" to-port="1" />
		<edge from-layer="6682" from-port="0" to-layer="6683" to-port="2" />
		<edge from-layer="6683" from-port="3" to-layer="6688" to-port="1" />
		<edge from-layer="6684" from-port="0" to-layer="6688" to-port="2" />
		<edge from-layer="6685" from-port="0" to-layer="6687" to-port="1" />
		<edge from-layer="6686" from-port="0" to-layer="6687" to-port="2" />
		<edge from-layer="6687" from-port="3" to-layer="6688" to-port="3" />
		<edge from-layer="6688" from-port="4" to-layer="6689" to-port="1" />
		<edge from-layer="6689" from-port="2" to-layer="6691" to-port="0" />
		<edge from-layer="6690" from-port="0" to-layer="6691" to-port="1" />
		<edge from-layer="6691" from-port="2" to-layer="6705" to-port="1" />
		<edge from-layer="6692" from-port="2" to-layer="6702" to-port="0" />
		<edge from-layer="6693" from-port="1" to-layer="6700" to-port="0" />
		<edge from-layer="6693" from-port="1" to-layer="6696" to-port="0" />
		<edge from-layer="6694" from-port="0" to-layer="6696" to-port="1" />
		<edge from-layer="6695" from-port="0" to-layer="6696" to-port="2" />
		<edge from-layer="6696" from-port="3" to-layer="6701" to-port="1" />
		<edge from-layer="6697" from-port="0" to-layer="6701" to-port="2" />
		<edge from-layer="6698" from-port="0" to-layer="6700" to-port="1" />
		<edge from-layer="6699" from-port="0" to-layer="6700" to-port="2" />
		<edge from-layer="6700" from-port="3" to-layer="6701" to-port="3" />
		<edge from-layer="6701" from-port="4" to-layer="6702" to-port="1" />
		<edge from-layer="6702" from-port="2" to-layer="6704" to-port="0" />
		<edge from-layer="6703" from-port="0" to-layer="6704" to-port="1" />
		<edge from-layer="6704" from-port="2" to-layer="6705" to-port="2" />
		<edge from-layer="6705" from-port="4" to-layer="6707" to-port="0" />
		<edge from-layer="6706" from-port="0" to-layer="6707" to-port="1" />
		<edge from-layer="6707" from-port="2" to-layer="6709" to-port="0" />
		<edge from-layer="6708" from-port="0" to-layer="6709" to-port="1" />
		<edge from-layer="6709" from-port="2" to-layer="6720" to-port="0" />
		<edge from-layer="6710" from-port="0" to-layer="6711" to-port="0" />
		<edge from-layer="6711" from-port="1" to-layer="6714" to-port="0" />
		<edge from-layer="6712" from-port="0" to-layer="6713" to-port="0" />
		<edge from-layer="6713" from-port="1" to-layer="6714" to-port="1" />
		<edge from-layer="6714" from-port="2" to-layer="6716" to-port="0" />
		<edge from-layer="6715" from-port="0" to-layer="6716" to-port="1" />
		<edge from-layer="6716" from-port="2" to-layer="6718" to-port="0" />
		<edge from-layer="6717" from-port="0" to-layer="6718" to-port="1" />
		<edge from-layer="6718" from-port="2" to-layer="6719" to-port="0" />
		<edge from-layer="6719" from-port="1" to-layer="6720" to-port="1" />
		<edge from-layer="6720" from-port="2" to-layer="6721" to-port="1" />
		<edge from-layer="6721" from-port="2" to-layer="6769" to-port="0" />
		<edge from-layer="6721" from-port="2" to-layer="6725" to-port="0" />
		<edge from-layer="6721" from-port="2" to-layer="6732" to-port="0" />
		<edge from-layer="6722" from-port="0" to-layer="6733" to-port="0" />
		<edge from-layer="6723" from-port="0" to-layer="6731" to-port="0" />
		<edge from-layer="6724" from-port="0" to-layer="6725" to-port="1" />
		<edge from-layer="6725" from-port="2" to-layer="6727" to-port="0" />
		<edge from-layer="6726" from-port="0" to-layer="6727" to-port="1" />
		<edge from-layer="6727" from-port="2" to-layer="6729" to-port="0" />
		<edge from-layer="6728" from-port="0" to-layer="6729" to-port="1" />
		<edge from-layer="6729" from-port="2" to-layer="6730" to-port="0" />
		<edge from-layer="6730" from-port="1" to-layer="6731" to-port="1" />
		<edge from-layer="6731" from-port="2" to-layer="6732" to-port="1" />
		<edge from-layer="6732" from-port="2" to-layer="6733" to-port="1" />
		<edge from-layer="6733" from-port="2" to-layer="6744" to-port="0" />
		<edge from-layer="6733" from-port="2" to-layer="6756" to-port="0" />
		<edge from-layer="6734" from-port="0" to-layer="6735" to-port="0" />
		<edge from-layer="6735" from-port="1" to-layer="6738" to-port="0" />
		<edge from-layer="6736" from-port="0" to-layer="6737" to-port="0" />
		<edge from-layer="6737" from-port="1" to-layer="6738" to-port="1" />
		<edge from-layer="6738" from-port="2" to-layer="6740" to-port="0" />
		<edge from-layer="6739" from-port="0" to-layer="6740" to-port="1" />
		<edge from-layer="6740" from-port="2" to-layer="6742" to-port="0" />
		<edge from-layer="6741" from-port="0" to-layer="6742" to-port="1" />
		<edge from-layer="6742" from-port="2" to-layer="6743" to-port="0" />
		<edge from-layer="6743" from-port="1" to-layer="6744" to-port="1" />
		<edge from-layer="6744" from-port="2" to-layer="6745" to-port="0" />
		<edge from-layer="6745" from-port="1" to-layer="6757" to-port="0" />
		<edge from-layer="6746" from-port="0" to-layer="6747" to-port="0" />
		<edge from-layer="6747" from-port="1" to-layer="6750" to-port="0" />
		<edge from-layer="6748" from-port="0" to-layer="6749" to-port="0" />
		<edge from-layer="6749" from-port="1" to-layer="6750" to-port="1" />
		<edge from-layer="6750" from-port="2" to-layer="6752" to-port="0" />
		<edge from-layer="6751" from-port="0" to-layer="6752" to-port="1" />
		<edge from-layer="6752" from-port="2" to-layer="6754" to-port="0" />
		<edge from-layer="6753" from-port="0" to-layer="6754" to-port="1" />
		<edge from-layer="6754" from-port="2" to-layer="6755" to-port="0" />
		<edge from-layer="6755" from-port="1" to-layer="6756" to-port="1" />
		<edge from-layer="6756" from-port="2" to-layer="6757" to-port="1" />
		<edge from-layer="6757" from-port="2" to-layer="6768" to-port="0" />
		<edge from-layer="6758" from-port="0" to-layer="6759" to-port="0" />
		<edge from-layer="6759" from-port="1" to-layer="6762" to-port="0" />
		<edge from-layer="6760" from-port="0" to-layer="6761" to-port="0" />
		<edge from-layer="6761" from-port="1" to-layer="6762" to-port="1" />
		<edge from-layer="6762" from-port="2" to-layer="6764" to-port="0" />
		<edge from-layer="6763" from-port="0" to-layer="6764" to-port="1" />
		<edge from-layer="6764" from-port="2" to-layer="6766" to-port="0" />
		<edge from-layer="6765" from-port="0" to-layer="6766" to-port="1" />
		<edge from-layer="6766" from-port="2" to-layer="6767" to-port="0" />
		<edge from-layer="6767" from-port="1" to-layer="6768" to-port="1" />
		<edge from-layer="6768" from-port="2" to-layer="6769" to-port="1" />
		<edge from-layer="6769" from-port="2" to-layer="6772" to-port="0" />
		<edge from-layer="6769" from-port="2" to-layer="6779" to-port="0" />
		<edge from-layer="6770" from-port="0" to-layer="6778" to-port="0" />
		<edge from-layer="6771" from-port="0" to-layer="6772" to-port="1" />
		<edge from-layer="6772" from-port="2" to-layer="6774" to-port="0" />
		<edge from-layer="6773" from-port="0" to-layer="6774" to-port="1" />
		<edge from-layer="6774" from-port="2" to-layer="6776" to-port="0" />
		<edge from-layer="6775" from-port="0" to-layer="6776" to-port="1" />
		<edge from-layer="6776" from-port="2" to-layer="6777" to-port="0" />
		<edge from-layer="6777" from-port="1" to-layer="6778" to-port="1" />
		<edge from-layer="6778" from-port="2" to-layer="6779" to-port="1" />
		<edge from-layer="6779" from-port="2" to-layer="6780" to-port="1" />
		<edge from-layer="6780" from-port="2" to-layer="6781" to-port="0" />
		<edge from-layer="6781" from-port="2" to-layer="6782" to-port="0" />
	</edges>
	<rt_info>
		<Runtime_version value="2024.2.0-15519-5c0f38f83f6-releases/2024/2" />
		<conversion_parameters>
			<framework value="pytorch" />
			<is_python_object value="True" />
		</conversion_parameters>
		<nncf>
			<friendly_names_were_updated value="True" />
			<weight_compression>
				<all_layers value="False" />
				<awq value="False" />
				<gptq value="False" />
				<group_size value="128" />
				<ignored_scope value="[]" />
				<mode value="int4_asym" />
				<ratio value="0.8" />
				<scale_estimation value="False" />
				<sensitivity_metric value="weight_quantization_error" />
			</weight_compression>
		</nncf>
		<optimum>
			<nncf_version value="2.11.0" />
			<optimum_intel_version value="1.18.1" />
			<optimum_version value="1.21.2" />
			<pytorch_version value="2.3.0+cu121" />
			<transformers_version value="4.41.2" />
		</optimum>
	</rt_info>
</net>
